<?xml version="1.0" ?>
<net name="model_manga_lightgrey_nopadding" version="10">
	<layers>
		<layer id="0" name="inputImage" type="Parameter" version="opset1">
			<data element_type="f16" shape="1, 3, 720, 1280"/>
			<output>
				<port id="0" names="inputImage" precision="FP16">
					<dim>1</dim>
					<dim>3</dim>
					<dim>720</dim>
					<dim>1280</dim>
				</port>
			</output>
		</layer>
		<layer id="1" name="encoder.layers.0.layers.0.layers.1.weight" type="Const" version="opset1">
			<data element_type="f16" offset="0" shape="32, 3, 3, 3" size="1728"/>
			<output>
				<port id="0" names="encoder.layers.0.layers.0.layers.1.weight" precision="FP16">
					<dim>32</dim>
					<dim>3</dim>
					<dim>3</dim>
					<dim>3</dim>
				</port>
			</output>
		</layer>
		<layer id="2" name="Conv_15/WithoutBiases" type="Convolution" version="opset1">
			<data auto_pad="explicit" dilations="1, 1" pads_begin="1, 1" pads_end="1, 1" strides="1, 1"/>
			<input>
				<port id="0" precision="FP16">
					<dim>1</dim>
					<dim>3</dim>
					<dim>720</dim>
					<dim>1280</dim>
				</port>
				<port id="1" precision="FP16">
					<dim>32</dim>
					<dim>3</dim>
					<dim>3</dim>
					<dim>3</dim>
				</port>
			</input>
			<output>
				<port id="2" precision="FP16">
					<dim>1</dim>
					<dim>32</dim>
					<dim>720</dim>
					<dim>1280</dim>
				</port>
			</output>
		</layer>
		<layer id="3" name="Conv_15/Dims2303" type="Const" version="opset1">
			<data element_type="f16" offset="1728" shape="1, 32, 1, 1" size="64"/>
			<output>
				<port id="0" precision="FP16">
					<dim>1</dim>
					<dim>32</dim>
					<dim>1</dim>
					<dim>1</dim>
				</port>
			</output>
		</layer>
		<layer id="4" name="Conv_15" type="Add" version="opset1">
			<data auto_broadcast="numpy"/>
			<input>
				<port id="0" precision="FP16">
					<dim>1</dim>
					<dim>32</dim>
					<dim>720</dim>
					<dim>1280</dim>
				</port>
				<port id="1" precision="FP16">
					<dim>1</dim>
					<dim>32</dim>
					<dim>1</dim>
					<dim>1</dim>
				</port>
			</input>
			<output>
				<port id="2" names="63" precision="FP16">
					<dim>1</dim>
					<dim>32</dim>
					<dim>720</dim>
					<dim>1280</dim>
				</port>
			</output>
		</layer>
		<layer id="5" name="InstanceNormalization_16/Range_input_port_0/value" type="Const" version="opset1">
			<data element_type="i64" offset="1792" shape="" size="8"/>
			<output>
				<port id="0" precision="I64"/>
			</output>
		</layer>
		<layer id="6" name="InstanceNormalization_16/Rank/shape_of" type="ShapeOf" version="opset3">
			<data output_type="i64"/>
			<input>
				<port id="0" precision="FP16">
					<dim>1</dim>
					<dim>32</dim>
					<dim>720</dim>
					<dim>1280</dim>
				</port>
			</input>
			<output>
				<port id="1" precision="I64">
					<dim>4</dim>
				</port>
			</output>
		</layer>
		<layer id="7" name="InstanceNormalization_16/Rank/rank_of" type="ShapeOf" version="opset3">
			<data output_type="i64"/>
			<input>
				<port id="0" precision="I64">
					<dim>4</dim>
				</port>
			</input>
			<output>
				<port id="1" precision="I64">
					<dim>1</dim>
				</port>
			</output>
		</layer>
		<layer id="8" name="InstanceNormalization_16/Rank/0d_rank_of/value" type="Const" version="opset1">
			<data element_type="i64" offset="1800" shape="1" size="8"/>
			<output>
				<port id="0" precision="I64">
					<dim>1</dim>
				</port>
			</output>
		</layer>
		<layer id="9" name="InstanceNormalization_16/Rank" type="Squeeze" version="opset1">
			<input>
				<port id="0" precision="I64">
					<dim>1</dim>
				</port>
				<port id="1" precision="I64">
					<dim>1</dim>
				</port>
			</input>
			<output>
				<port id="2" precision="I64"/>
			</output>
		</layer>
		<layer id="10" name="InstanceNormalization_16/Range_input_port_2/value" type="Const" version="opset1">
			<data element_type="i64" offset="1808" shape="" size="8"/>
			<output>
				<port id="0" precision="I64"/>
			</output>
		</layer>
		<layer id="11" name="InstanceNormalization_16/Range" type="Range" version="opset4">
			<data output_type="i64"/>
			<input>
				<port id="0" precision="I64"/>
				<port id="1" precision="I64"/>
				<port id="2" precision="I64"/>
			</input>
			<output>
				<port id="3" precision="I64">
					<dim>2</dim>
				</port>
			</output>
		</layer>
		<layer id="12" name="InstanceNormalization_16/Ins_Norm/MVN_" type="MVN" version="opset6">
			<data eps="9.9999997473787516e-06" eps_mode="INSIDE_SQRT" normalize_variance="true"/>
			<input>
				<port id="0" precision="FP16">
					<dim>1</dim>
					<dim>32</dim>
					<dim>720</dim>
					<dim>1280</dim>
				</port>
				<port id="1" precision="I64">
					<dim>2</dim>
				</port>
			</input>
			<output>
				<port id="2" precision="FP16">
					<dim>1</dim>
					<dim>32</dim>
					<dim>720</dim>
					<dim>1280</dim>
				</port>
			</output>
		</layer>
		<layer id="13" name="encoder.layers.0.layers.1.weight" type="Const" version="opset1">
			<data element_type="f16" offset="1816" shape="1, 32, 1, 1" size="64"/>
			<output>
				<port id="0" names="encoder.layers.0.layers.1.weight" precision="FP16">
					<dim>1</dim>
					<dim>32</dim>
					<dim>1</dim>
					<dim>1</dim>
				</port>
			</output>
		</layer>
		<layer id="14" name="InstanceNormalization_16/Ins_Norm/mul_" type="Multiply" version="opset1">
			<data auto_broadcast="numpy"/>
			<input>
				<port id="0" precision="FP16">
					<dim>1</dim>
					<dim>32</dim>
					<dim>720</dim>
					<dim>1280</dim>
				</port>
				<port id="1" precision="FP16">
					<dim>1</dim>
					<dim>32</dim>
					<dim>1</dim>
					<dim>1</dim>
				</port>
			</input>
			<output>
				<port id="2" precision="FP16">
					<dim>1</dim>
					<dim>32</dim>
					<dim>720</dim>
					<dim>1280</dim>
				</port>
			</output>
		</layer>
		<layer id="15" name="encoder.layers.0.layers.1.bias" type="Const" version="opset1">
			<data element_type="f16" offset="1880" shape="1, 32, 1, 1" size="64"/>
			<output>
				<port id="0" names="encoder.layers.0.layers.1.bias" precision="FP16">
					<dim>1</dim>
					<dim>32</dim>
					<dim>1</dim>
					<dim>1</dim>
				</port>
			</output>
		</layer>
		<layer id="16" name="InstanceNormalization_16" type="Add" version="opset1">
			<data auto_broadcast="numpy"/>
			<input>
				<port id="0" precision="FP16">
					<dim>1</dim>
					<dim>32</dim>
					<dim>720</dim>
					<dim>1280</dim>
				</port>
				<port id="1" precision="FP16">
					<dim>1</dim>
					<dim>32</dim>
					<dim>1</dim>
					<dim>1</dim>
				</port>
			</input>
			<output>
				<port id="2" names="64" precision="FP16">
					<dim>1</dim>
					<dim>32</dim>
					<dim>720</dim>
					<dim>1280</dim>
				</port>
			</output>
		</layer>
		<layer id="17" name="Relu_17" type="ReLU" version="opset1">
			<input>
				<port id="0" precision="FP16">
					<dim>1</dim>
					<dim>32</dim>
					<dim>720</dim>
					<dim>1280</dim>
				</port>
			</input>
			<output>
				<port id="1" names="65" precision="FP16">
					<dim>1</dim>
					<dim>32</dim>
					<dim>720</dim>
					<dim>1280</dim>
				</port>
			</output>
		</layer>
		<layer id="18" name="encoder.layers.1.layers.0.layers.1.weight" type="Const" version="opset1">
			<data element_type="f16" offset="1944" shape="64, 32, 3, 3" size="36864"/>
			<output>
				<port id="0" names="encoder.layers.1.layers.0.layers.1.weight" precision="FP16">
					<dim>64</dim>
					<dim>32</dim>
					<dim>3</dim>
					<dim>3</dim>
				</port>
			</output>
		</layer>
		<layer id="19" name="Conv_33/WithoutBiases" type="Convolution" version="opset1">
			<data auto_pad="explicit" dilations="1, 1" pads_begin="1, 1" pads_end="1, 1" strides="2, 2"/>
			<input>
				<port id="0" precision="FP16">
					<dim>1</dim>
					<dim>32</dim>
					<dim>720</dim>
					<dim>1280</dim>
				</port>
				<port id="1" precision="FP16">
					<dim>64</dim>
					<dim>32</dim>
					<dim>3</dim>
					<dim>3</dim>
				</port>
			</input>
			<output>
				<port id="2" precision="FP16">
					<dim>1</dim>
					<dim>64</dim>
					<dim>360</dim>
					<dim>640</dim>
				</port>
			</output>
		</layer>
		<layer id="20" name="Conv_33/Dims2261" type="Const" version="opset1">
			<data element_type="f16" offset="38808" shape="1, 64, 1, 1" size="128"/>
			<output>
				<port id="0" precision="FP16">
					<dim>1</dim>
					<dim>64</dim>
					<dim>1</dim>
					<dim>1</dim>
				</port>
			</output>
		</layer>
		<layer id="21" name="Conv_33" type="Add" version="opset1">
			<data auto_broadcast="numpy"/>
			<input>
				<port id="0" precision="FP16">
					<dim>1</dim>
					<dim>64</dim>
					<dim>360</dim>
					<dim>640</dim>
				</port>
				<port id="1" precision="FP16">
					<dim>1</dim>
					<dim>64</dim>
					<dim>1</dim>
					<dim>1</dim>
				</port>
			</input>
			<output>
				<port id="2" names="90" precision="FP16">
					<dim>1</dim>
					<dim>64</dim>
					<dim>360</dim>
					<dim>640</dim>
				</port>
			</output>
		</layer>
		<layer id="22" name="InstanceNormalization_34/Range_input_port_0/value" type="Const" version="opset1">
			<data element_type="i64" offset="1792" shape="" size="8"/>
			<output>
				<port id="0" precision="I64"/>
			</output>
		</layer>
		<layer id="23" name="InstanceNormalization_34/Rank/shape_of" type="ShapeOf" version="opset3">
			<data output_type="i64"/>
			<input>
				<port id="0" precision="FP16">
					<dim>1</dim>
					<dim>64</dim>
					<dim>360</dim>
					<dim>640</dim>
				</port>
			</input>
			<output>
				<port id="1" precision="I64">
					<dim>4</dim>
				</port>
			</output>
		</layer>
		<layer id="24" name="InstanceNormalization_34/Rank/rank_of" type="ShapeOf" version="opset3">
			<data output_type="i64"/>
			<input>
				<port id="0" precision="I64">
					<dim>4</dim>
				</port>
			</input>
			<output>
				<port id="1" precision="I64">
					<dim>1</dim>
				</port>
			</output>
		</layer>
		<layer id="25" name="InstanceNormalization_34/Rank/0d_rank_of/value" type="Const" version="opset1">
			<data element_type="i64" offset="1800" shape="1" size="8"/>
			<output>
				<port id="0" precision="I64">
					<dim>1</dim>
				</port>
			</output>
		</layer>
		<layer id="26" name="InstanceNormalization_34/Rank" type="Squeeze" version="opset1">
			<input>
				<port id="0" precision="I64">
					<dim>1</dim>
				</port>
				<port id="1" precision="I64">
					<dim>1</dim>
				</port>
			</input>
			<output>
				<port id="2" precision="I64"/>
			</output>
		</layer>
		<layer id="27" name="InstanceNormalization_34/Range_input_port_2/value" type="Const" version="opset1">
			<data element_type="i64" offset="1808" shape="" size="8"/>
			<output>
				<port id="0" precision="I64"/>
			</output>
		</layer>
		<layer id="28" name="InstanceNormalization_34/Range" type="Range" version="opset4">
			<data output_type="i64"/>
			<input>
				<port id="0" precision="I64"/>
				<port id="1" precision="I64"/>
				<port id="2" precision="I64"/>
			</input>
			<output>
				<port id="3" precision="I64">
					<dim>2</dim>
				</port>
			</output>
		</layer>
		<layer id="29" name="InstanceNormalization_34/Ins_Norm/MVN_" type="MVN" version="opset6">
			<data eps="9.9999997473787516e-06" eps_mode="INSIDE_SQRT" normalize_variance="true"/>
			<input>
				<port id="0" precision="FP16">
					<dim>1</dim>
					<dim>64</dim>
					<dim>360</dim>
					<dim>640</dim>
				</port>
				<port id="1" precision="I64">
					<dim>2</dim>
				</port>
			</input>
			<output>
				<port id="2" precision="FP16">
					<dim>1</dim>
					<dim>64</dim>
					<dim>360</dim>
					<dim>640</dim>
				</port>
			</output>
		</layer>
		<layer id="30" name="encoder.layers.1.layers.1.weight" type="Const" version="opset1">
			<data element_type="f16" offset="38936" shape="1, 64, 1, 1" size="128"/>
			<output>
				<port id="0" names="encoder.layers.1.layers.1.weight" precision="FP16">
					<dim>1</dim>
					<dim>64</dim>
					<dim>1</dim>
					<dim>1</dim>
				</port>
			</output>
		</layer>
		<layer id="31" name="InstanceNormalization_34/Ins_Norm/mul_" type="Multiply" version="opset1">
			<data auto_broadcast="numpy"/>
			<input>
				<port id="0" precision="FP16">
					<dim>1</dim>
					<dim>64</dim>
					<dim>360</dim>
					<dim>640</dim>
				</port>
				<port id="1" precision="FP16">
					<dim>1</dim>
					<dim>64</dim>
					<dim>1</dim>
					<dim>1</dim>
				</port>
			</input>
			<output>
				<port id="2" precision="FP16">
					<dim>1</dim>
					<dim>64</dim>
					<dim>360</dim>
					<dim>640</dim>
				</port>
			</output>
		</layer>
		<layer id="32" name="encoder.layers.1.layers.1.bias" type="Const" version="opset1">
			<data element_type="f16" offset="39064" shape="1, 64, 1, 1" size="128"/>
			<output>
				<port id="0" names="encoder.layers.1.layers.1.bias" precision="FP16">
					<dim>1</dim>
					<dim>64</dim>
					<dim>1</dim>
					<dim>1</dim>
				</port>
			</output>
		</layer>
		<layer id="33" name="InstanceNormalization_34" type="Add" version="opset1">
			<data auto_broadcast="numpy"/>
			<input>
				<port id="0" precision="FP16">
					<dim>1</dim>
					<dim>64</dim>
					<dim>360</dim>
					<dim>640</dim>
				</port>
				<port id="1" precision="FP16">
					<dim>1</dim>
					<dim>64</dim>
					<dim>1</dim>
					<dim>1</dim>
				</port>
			</input>
			<output>
				<port id="2" names="91" precision="FP16">
					<dim>1</dim>
					<dim>64</dim>
					<dim>360</dim>
					<dim>640</dim>
				</port>
			</output>
		</layer>
		<layer id="34" name="Relu_35" type="ReLU" version="opset1">
			<input>
				<port id="0" precision="FP16">
					<dim>1</dim>
					<dim>64</dim>
					<dim>360</dim>
					<dim>640</dim>
				</port>
			</input>
			<output>
				<port id="1" names="92" precision="FP16">
					<dim>1</dim>
					<dim>64</dim>
					<dim>360</dim>
					<dim>640</dim>
				</port>
			</output>
		</layer>
		<layer id="35" name="encoder.layers.2.layers.0.layers.1.weight" type="Const" version="opset1">
			<data element_type="f16" offset="39192" shape="128, 64, 3, 3" size="147456"/>
			<output>
				<port id="0" names="encoder.layers.2.layers.0.layers.1.weight" precision="FP16">
					<dim>128</dim>
					<dim>64</dim>
					<dim>3</dim>
					<dim>3</dim>
				</port>
			</output>
		</layer>
		<layer id="36" name="Conv_51/WithoutBiases" type="Convolution" version="opset1">
			<data auto_pad="explicit" dilations="1, 1" pads_begin="1, 1" pads_end="1, 1" strides="2, 2"/>
			<input>
				<port id="0" precision="FP16">
					<dim>1</dim>
					<dim>64</dim>
					<dim>360</dim>
					<dim>640</dim>
				</port>
				<port id="1" precision="FP16">
					<dim>128</dim>
					<dim>64</dim>
					<dim>3</dim>
					<dim>3</dim>
				</port>
			</input>
			<output>
				<port id="2" precision="FP16">
					<dim>1</dim>
					<dim>128</dim>
					<dim>180</dim>
					<dim>320</dim>
				</port>
			</output>
		</layer>
		<layer id="37" name="Conv_51/Dims2273" type="Const" version="opset1">
			<data element_type="f16" offset="186648" shape="1, 128, 1, 1" size="256"/>
			<output>
				<port id="0" precision="FP16">
					<dim>1</dim>
					<dim>128</dim>
					<dim>1</dim>
					<dim>1</dim>
				</port>
			</output>
		</layer>
		<layer id="38" name="Conv_51" type="Add" version="opset1">
			<data auto_broadcast="numpy"/>
			<input>
				<port id="0" precision="FP16">
					<dim>1</dim>
					<dim>128</dim>
					<dim>180</dim>
					<dim>320</dim>
				</port>
				<port id="1" precision="FP16">
					<dim>1</dim>
					<dim>128</dim>
					<dim>1</dim>
					<dim>1</dim>
				</port>
			</input>
			<output>
				<port id="2" names="117" precision="FP16">
					<dim>1</dim>
					<dim>128</dim>
					<dim>180</dim>
					<dim>320</dim>
				</port>
			</output>
		</layer>
		<layer id="39" name="InstanceNormalization_52/Range_input_port_0/value" type="Const" version="opset1">
			<data element_type="i64" offset="1792" shape="" size="8"/>
			<output>
				<port id="0" precision="I64"/>
			</output>
		</layer>
		<layer id="40" name="InstanceNormalization_52/Rank/shape_of" type="ShapeOf" version="opset3">
			<data output_type="i64"/>
			<input>
				<port id="0" precision="FP16">
					<dim>1</dim>
					<dim>128</dim>
					<dim>180</dim>
					<dim>320</dim>
				</port>
			</input>
			<output>
				<port id="1" precision="I64">
					<dim>4</dim>
				</port>
			</output>
		</layer>
		<layer id="41" name="InstanceNormalization_52/Rank/rank_of" type="ShapeOf" version="opset3">
			<data output_type="i64"/>
			<input>
				<port id="0" precision="I64">
					<dim>4</dim>
				</port>
			</input>
			<output>
				<port id="1" precision="I64">
					<dim>1</dim>
				</port>
			</output>
		</layer>
		<layer id="42" name="InstanceNormalization_52/Rank/0d_rank_of/value" type="Const" version="opset1">
			<data element_type="i64" offset="1800" shape="1" size="8"/>
			<output>
				<port id="0" precision="I64">
					<dim>1</dim>
				</port>
			</output>
		</layer>
		<layer id="43" name="InstanceNormalization_52/Rank" type="Squeeze" version="opset1">
			<input>
				<port id="0" precision="I64">
					<dim>1</dim>
				</port>
				<port id="1" precision="I64">
					<dim>1</dim>
				</port>
			</input>
			<output>
				<port id="2" precision="I64"/>
			</output>
		</layer>
		<layer id="44" name="InstanceNormalization_52/Range_input_port_2/value" type="Const" version="opset1">
			<data element_type="i64" offset="1808" shape="" size="8"/>
			<output>
				<port id="0" precision="I64"/>
			</output>
		</layer>
		<layer id="45" name="InstanceNormalization_52/Range" type="Range" version="opset4">
			<data output_type="i64"/>
			<input>
				<port id="0" precision="I64"/>
				<port id="1" precision="I64"/>
				<port id="2" precision="I64"/>
			</input>
			<output>
				<port id="3" precision="I64">
					<dim>2</dim>
				</port>
			</output>
		</layer>
		<layer id="46" name="InstanceNormalization_52/Ins_Norm/MVN_" type="MVN" version="opset6">
			<data eps="9.9999997473787516e-06" eps_mode="INSIDE_SQRT" normalize_variance="true"/>
			<input>
				<port id="0" precision="FP16">
					<dim>1</dim>
					<dim>128</dim>
					<dim>180</dim>
					<dim>320</dim>
				</port>
				<port id="1" precision="I64">
					<dim>2</dim>
				</port>
			</input>
			<output>
				<port id="2" precision="FP16">
					<dim>1</dim>
					<dim>128</dim>
					<dim>180</dim>
					<dim>320</dim>
				</port>
			</output>
		</layer>
		<layer id="47" name="encoder.layers.2.layers.1.weight" type="Const" version="opset1">
			<data element_type="f16" offset="186904" shape="1, 128, 1, 1" size="256"/>
			<output>
				<port id="0" names="encoder.layers.2.layers.1.weight" precision="FP16">
					<dim>1</dim>
					<dim>128</dim>
					<dim>1</dim>
					<dim>1</dim>
				</port>
			</output>
		</layer>
		<layer id="48" name="InstanceNormalization_52/Ins_Norm/mul_" type="Multiply" version="opset1">
			<data auto_broadcast="numpy"/>
			<input>
				<port id="0" precision="FP16">
					<dim>1</dim>
					<dim>128</dim>
					<dim>180</dim>
					<dim>320</dim>
				</port>
				<port id="1" precision="FP16">
					<dim>1</dim>
					<dim>128</dim>
					<dim>1</dim>
					<dim>1</dim>
				</port>
			</input>
			<output>
				<port id="2" precision="FP16">
					<dim>1</dim>
					<dim>128</dim>
					<dim>180</dim>
					<dim>320</dim>
				</port>
			</output>
		</layer>
		<layer id="49" name="encoder.layers.2.layers.1.bias" type="Const" version="opset1">
			<data element_type="f16" offset="187160" shape="1, 128, 1, 1" size="256"/>
			<output>
				<port id="0" names="encoder.layers.2.layers.1.bias" precision="FP16">
					<dim>1</dim>
					<dim>128</dim>
					<dim>1</dim>
					<dim>1</dim>
				</port>
			</output>
		</layer>
		<layer id="50" name="InstanceNormalization_52" type="Add" version="opset1">
			<data auto_broadcast="numpy"/>
			<input>
				<port id="0" precision="FP16">
					<dim>1</dim>
					<dim>128</dim>
					<dim>180</dim>
					<dim>320</dim>
				</port>
				<port id="1" precision="FP16">
					<dim>1</dim>
					<dim>128</dim>
					<dim>1</dim>
					<dim>1</dim>
				</port>
			</input>
			<output>
				<port id="2" names="118" precision="FP16">
					<dim>1</dim>
					<dim>128</dim>
					<dim>180</dim>
					<dim>320</dim>
				</port>
			</output>
		</layer>
		<layer id="51" name="Relu_53" type="ReLU" version="opset1">
			<input>
				<port id="0" precision="FP16">
					<dim>1</dim>
					<dim>128</dim>
					<dim>180</dim>
					<dim>320</dim>
				</port>
			</input>
			<output>
				<port id="1" names="119" precision="FP16">
					<dim>1</dim>
					<dim>128</dim>
					<dim>180</dim>
					<dim>320</dim>
				</port>
			</output>
		</layer>
		<layer id="52" name="encoder.layers.3.branch.0.layers.0.layers.1.weight" type="Const" version="opset1">
			<data element_type="f16" offset="187416" shape="128, 128, 3, 3" size="294912"/>
			<output>
				<port id="0" names="encoder.layers.3.branch.0.layers.0.layers.1.weight" precision="FP16">
					<dim>128</dim>
					<dim>128</dim>
					<dim>3</dim>
					<dim>3</dim>
				</port>
			</output>
		</layer>
		<layer id="53" name="Conv_69/WithoutBiases" type="Convolution" version="opset1">
			<data auto_pad="explicit" dilations="1, 1" pads_begin="1, 1" pads_end="1, 1" strides="1, 1"/>
			<input>
				<port id="0" precision="FP16">
					<dim>1</dim>
					<dim>128</dim>
					<dim>180</dim>
					<dim>320</dim>
				</port>
				<port id="1" precision="FP16">
					<dim>128</dim>
					<dim>128</dim>
					<dim>3</dim>
					<dim>3</dim>
				</port>
			</input>
			<output>
				<port id="2" precision="FP16">
					<dim>1</dim>
					<dim>128</dim>
					<dim>180</dim>
					<dim>320</dim>
				</port>
			</output>
		</layer>
		<layer id="54" name="Conv_69/Dims2309" type="Const" version="opset1">
			<data element_type="f16" offset="482328" shape="1, 128, 1, 1" size="256"/>
			<output>
				<port id="0" precision="FP16">
					<dim>1</dim>
					<dim>128</dim>
					<dim>1</dim>
					<dim>1</dim>
				</port>
			</output>
		</layer>
		<layer id="55" name="Conv_69" type="Add" version="opset1">
			<data auto_broadcast="numpy"/>
			<input>
				<port id="0" precision="FP16">
					<dim>1</dim>
					<dim>128</dim>
					<dim>180</dim>
					<dim>320</dim>
				</port>
				<port id="1" precision="FP16">
					<dim>1</dim>
					<dim>128</dim>
					<dim>1</dim>
					<dim>1</dim>
				</port>
			</input>
			<output>
				<port id="2" names="144" precision="FP16">
					<dim>1</dim>
					<dim>128</dim>
					<dim>180</dim>
					<dim>320</dim>
				</port>
			</output>
		</layer>
		<layer id="56" name="InstanceNormalization_70/Range_input_port_0/value" type="Const" version="opset1">
			<data element_type="i64" offset="1792" shape="" size="8"/>
			<output>
				<port id="0" precision="I64"/>
			</output>
		</layer>
		<layer id="57" name="InstanceNormalization_70/Rank/shape_of" type="ShapeOf" version="opset3">
			<data output_type="i64"/>
			<input>
				<port id="0" precision="FP16">
					<dim>1</dim>
					<dim>128</dim>
					<dim>180</dim>
					<dim>320</dim>
				</port>
			</input>
			<output>
				<port id="1" precision="I64">
					<dim>4</dim>
				</port>
			</output>
		</layer>
		<layer id="58" name="InstanceNormalization_70/Rank/rank_of" type="ShapeOf" version="opset3">
			<data output_type="i64"/>
			<input>
				<port id="0" precision="I64">
					<dim>4</dim>
				</port>
			</input>
			<output>
				<port id="1" precision="I64">
					<dim>1</dim>
				</port>
			</output>
		</layer>
		<layer id="59" name="InstanceNormalization_70/Rank/0d_rank_of/value" type="Const" version="opset1">
			<data element_type="i64" offset="1800" shape="1" size="8"/>
			<output>
				<port id="0" precision="I64">
					<dim>1</dim>
				</port>
			</output>
		</layer>
		<layer id="60" name="InstanceNormalization_70/Rank" type="Squeeze" version="opset1">
			<input>
				<port id="0" precision="I64">
					<dim>1</dim>
				</port>
				<port id="1" precision="I64">
					<dim>1</dim>
				</port>
			</input>
			<output>
				<port id="2" precision="I64"/>
			</output>
		</layer>
		<layer id="61" name="InstanceNormalization_70/Range_input_port_2/value" type="Const" version="opset1">
			<data element_type="i64" offset="1808" shape="" size="8"/>
			<output>
				<port id="0" precision="I64"/>
			</output>
		</layer>
		<layer id="62" name="InstanceNormalization_70/Range" type="Range" version="opset4">
			<data output_type="i64"/>
			<input>
				<port id="0" precision="I64"/>
				<port id="1" precision="I64"/>
				<port id="2" precision="I64"/>
			</input>
			<output>
				<port id="3" precision="I64">
					<dim>2</dim>
				</port>
			</output>
		</layer>
		<layer id="63" name="InstanceNormalization_70/Ins_Norm/MVN_" type="MVN" version="opset6">
			<data eps="9.9999997473787516e-06" eps_mode="INSIDE_SQRT" normalize_variance="true"/>
			<input>
				<port id="0" precision="FP16">
					<dim>1</dim>
					<dim>128</dim>
					<dim>180</dim>
					<dim>320</dim>
				</port>
				<port id="1" precision="I64">
					<dim>2</dim>
				</port>
			</input>
			<output>
				<port id="2" precision="FP16">
					<dim>1</dim>
					<dim>128</dim>
					<dim>180</dim>
					<dim>320</dim>
				</port>
			</output>
		</layer>
		<layer id="64" name="encoder.layers.3.branch.0.layers.1.weight" type="Const" version="opset1">
			<data element_type="f16" offset="482584" shape="1, 128, 1, 1" size="256"/>
			<output>
				<port id="0" names="encoder.layers.3.branch.0.layers.1.weight" precision="FP16">
					<dim>1</dim>
					<dim>128</dim>
					<dim>1</dim>
					<dim>1</dim>
				</port>
			</output>
		</layer>
		<layer id="65" name="InstanceNormalization_70/Ins_Norm/mul_" type="Multiply" version="opset1">
			<data auto_broadcast="numpy"/>
			<input>
				<port id="0" precision="FP16">
					<dim>1</dim>
					<dim>128</dim>
					<dim>180</dim>
					<dim>320</dim>
				</port>
				<port id="1" precision="FP16">
					<dim>1</dim>
					<dim>128</dim>
					<dim>1</dim>
					<dim>1</dim>
				</port>
			</input>
			<output>
				<port id="2" precision="FP16">
					<dim>1</dim>
					<dim>128</dim>
					<dim>180</dim>
					<dim>320</dim>
				</port>
			</output>
		</layer>
		<layer id="66" name="encoder.layers.3.branch.0.layers.1.bias" type="Const" version="opset1">
			<data element_type="f16" offset="482840" shape="1, 128, 1, 1" size="256"/>
			<output>
				<port id="0" names="encoder.layers.3.branch.0.layers.1.bias" precision="FP16">
					<dim>1</dim>
					<dim>128</dim>
					<dim>1</dim>
					<dim>1</dim>
				</port>
			</output>
		</layer>
		<layer id="67" name="InstanceNormalization_70" type="Add" version="opset1">
			<data auto_broadcast="numpy"/>
			<input>
				<port id="0" precision="FP16">
					<dim>1</dim>
					<dim>128</dim>
					<dim>180</dim>
					<dim>320</dim>
				</port>
				<port id="1" precision="FP16">
					<dim>1</dim>
					<dim>128</dim>
					<dim>1</dim>
					<dim>1</dim>
				</port>
			</input>
			<output>
				<port id="2" names="145" precision="FP16">
					<dim>1</dim>
					<dim>128</dim>
					<dim>180</dim>
					<dim>320</dim>
				</port>
			</output>
		</layer>
		<layer id="68" name="Relu_71" type="ReLU" version="opset1">
			<input>
				<port id="0" precision="FP16">
					<dim>1</dim>
					<dim>128</dim>
					<dim>180</dim>
					<dim>320</dim>
				</port>
			</input>
			<output>
				<port id="1" names="146" precision="FP16">
					<dim>1</dim>
					<dim>128</dim>
					<dim>180</dim>
					<dim>320</dim>
				</port>
			</output>
		</layer>
		<layer id="69" name="Add_72" type="Add" version="opset1">
			<data auto_broadcast="numpy"/>
			<input>
				<port id="0" precision="FP16">
					<dim>1</dim>
					<dim>128</dim>
					<dim>180</dim>
					<dim>320</dim>
				</port>
				<port id="1" precision="FP16">
					<dim>1</dim>
					<dim>128</dim>
					<dim>180</dim>
					<dim>320</dim>
				</port>
			</input>
			<output>
				<port id="2" names="147" precision="FP16">
					<dim>1</dim>
					<dim>128</dim>
					<dim>180</dim>
					<dim>320</dim>
				</port>
			</output>
		</layer>
		<layer id="70" name="Relu_73" type="ReLU" version="opset1">
			<input>
				<port id="0" precision="FP16">
					<dim>1</dim>
					<dim>128</dim>
					<dim>180</dim>
					<dim>320</dim>
				</port>
			</input>
			<output>
				<port id="1" names="148" precision="FP16">
					<dim>1</dim>
					<dim>128</dim>
					<dim>180</dim>
					<dim>320</dim>
				</port>
			</output>
		</layer>
		<layer id="71" name="encoder.layers.4.branch.0.layers.0.layers.1.weight" type="Const" version="opset1">
			<data element_type="f16" offset="483096" shape="128, 128, 3, 3" size="294912"/>
			<output>
				<port id="0" names="encoder.layers.4.branch.0.layers.0.layers.1.weight" precision="FP16">
					<dim>128</dim>
					<dim>128</dim>
					<dim>3</dim>
					<dim>3</dim>
				</port>
			</output>
		</layer>
		<layer id="72" name="Conv_89/WithoutBiases" type="Convolution" version="opset1">
			<data auto_pad="explicit" dilations="1, 1" pads_begin="1, 1" pads_end="1, 1" strides="1, 1"/>
			<input>
				<port id="0" precision="FP16">
					<dim>1</dim>
					<dim>128</dim>
					<dim>180</dim>
					<dim>320</dim>
				</port>
				<port id="1" precision="FP16">
					<dim>128</dim>
					<dim>128</dim>
					<dim>3</dim>
					<dim>3</dim>
				</port>
			</input>
			<output>
				<port id="2" precision="FP16">
					<dim>1</dim>
					<dim>128</dim>
					<dim>180</dim>
					<dim>320</dim>
				</port>
			</output>
		</layer>
		<layer id="73" name="Conv_89/Dims2285" type="Const" version="opset1">
			<data element_type="f16" offset="778008" shape="1, 128, 1, 1" size="256"/>
			<output>
				<port id="0" precision="FP16">
					<dim>1</dim>
					<dim>128</dim>
					<dim>1</dim>
					<dim>1</dim>
				</port>
			</output>
		</layer>
		<layer id="74" name="Conv_89" type="Add" version="opset1">
			<data auto_broadcast="numpy"/>
			<input>
				<port id="0" precision="FP16">
					<dim>1</dim>
					<dim>128</dim>
					<dim>180</dim>
					<dim>320</dim>
				</port>
				<port id="1" precision="FP16">
					<dim>1</dim>
					<dim>128</dim>
					<dim>1</dim>
					<dim>1</dim>
				</port>
			</input>
			<output>
				<port id="2" names="173" precision="FP16">
					<dim>1</dim>
					<dim>128</dim>
					<dim>180</dim>
					<dim>320</dim>
				</port>
			</output>
		</layer>
		<layer id="75" name="InstanceNormalization_90/Range_input_port_0/value" type="Const" version="opset1">
			<data element_type="i64" offset="1792" shape="" size="8"/>
			<output>
				<port id="0" precision="I64"/>
			</output>
		</layer>
		<layer id="76" name="InstanceNormalization_90/Rank/shape_of" type="ShapeOf" version="opset3">
			<data output_type="i64"/>
			<input>
				<port id="0" precision="FP16">
					<dim>1</dim>
					<dim>128</dim>
					<dim>180</dim>
					<dim>320</dim>
				</port>
			</input>
			<output>
				<port id="1" precision="I64">
					<dim>4</dim>
				</port>
			</output>
		</layer>
		<layer id="77" name="InstanceNormalization_90/Rank/rank_of" type="ShapeOf" version="opset3">
			<data output_type="i64"/>
			<input>
				<port id="0" precision="I64">
					<dim>4</dim>
				</port>
			</input>
			<output>
				<port id="1" precision="I64">
					<dim>1</dim>
				</port>
			</output>
		</layer>
		<layer id="78" name="InstanceNormalization_90/Rank/0d_rank_of/value" type="Const" version="opset1">
			<data element_type="i64" offset="1800" shape="1" size="8"/>
			<output>
				<port id="0" precision="I64">
					<dim>1</dim>
				</port>
			</output>
		</layer>
		<layer id="79" name="InstanceNormalization_90/Rank" type="Squeeze" version="opset1">
			<input>
				<port id="0" precision="I64">
					<dim>1</dim>
				</port>
				<port id="1" precision="I64">
					<dim>1</dim>
				</port>
			</input>
			<output>
				<port id="2" precision="I64"/>
			</output>
		</layer>
		<layer id="80" name="InstanceNormalization_90/Range_input_port_2/value" type="Const" version="opset1">
			<data element_type="i64" offset="1808" shape="" size="8"/>
			<output>
				<port id="0" precision="I64"/>
			</output>
		</layer>
		<layer id="81" name="InstanceNormalization_90/Range" type="Range" version="opset4">
			<data output_type="i64"/>
			<input>
				<port id="0" precision="I64"/>
				<port id="1" precision="I64"/>
				<port id="2" precision="I64"/>
			</input>
			<output>
				<port id="3" precision="I64">
					<dim>2</dim>
				</port>
			</output>
		</layer>
		<layer id="82" name="InstanceNormalization_90/Ins_Norm/MVN_" type="MVN" version="opset6">
			<data eps="9.9999997473787516e-06" eps_mode="INSIDE_SQRT" normalize_variance="true"/>
			<input>
				<port id="0" precision="FP16">
					<dim>1</dim>
					<dim>128</dim>
					<dim>180</dim>
					<dim>320</dim>
				</port>
				<port id="1" precision="I64">
					<dim>2</dim>
				</port>
			</input>
			<output>
				<port id="2" precision="FP16">
					<dim>1</dim>
					<dim>128</dim>
					<dim>180</dim>
					<dim>320</dim>
				</port>
			</output>
		</layer>
		<layer id="83" name="encoder.layers.4.branch.0.layers.1.weight" type="Const" version="opset1">
			<data element_type="f16" offset="778264" shape="1, 128, 1, 1" size="256"/>
			<output>
				<port id="0" names="encoder.layers.4.branch.0.layers.1.weight" precision="FP16">
					<dim>1</dim>
					<dim>128</dim>
					<dim>1</dim>
					<dim>1</dim>
				</port>
			</output>
		</layer>
		<layer id="84" name="InstanceNormalization_90/Ins_Norm/mul_" type="Multiply" version="opset1">
			<data auto_broadcast="numpy"/>
			<input>
				<port id="0" precision="FP16">
					<dim>1</dim>
					<dim>128</dim>
					<dim>180</dim>
					<dim>320</dim>
				</port>
				<port id="1" precision="FP16">
					<dim>1</dim>
					<dim>128</dim>
					<dim>1</dim>
					<dim>1</dim>
				</port>
			</input>
			<output>
				<port id="2" precision="FP16">
					<dim>1</dim>
					<dim>128</dim>
					<dim>180</dim>
					<dim>320</dim>
				</port>
			</output>
		</layer>
		<layer id="85" name="encoder.layers.4.branch.0.layers.1.bias" type="Const" version="opset1">
			<data element_type="f16" offset="778520" shape="1, 128, 1, 1" size="256"/>
			<output>
				<port id="0" names="encoder.layers.4.branch.0.layers.1.bias" precision="FP16">
					<dim>1</dim>
					<dim>128</dim>
					<dim>1</dim>
					<dim>1</dim>
				</port>
			</output>
		</layer>
		<layer id="86" name="InstanceNormalization_90" type="Add" version="opset1">
			<data auto_broadcast="numpy"/>
			<input>
				<port id="0" precision="FP16">
					<dim>1</dim>
					<dim>128</dim>
					<dim>180</dim>
					<dim>320</dim>
				</port>
				<port id="1" precision="FP16">
					<dim>1</dim>
					<dim>128</dim>
					<dim>1</dim>
					<dim>1</dim>
				</port>
			</input>
			<output>
				<port id="2" names="174" precision="FP16">
					<dim>1</dim>
					<dim>128</dim>
					<dim>180</dim>
					<dim>320</dim>
				</port>
			</output>
		</layer>
		<layer id="87" name="Relu_91" type="ReLU" version="opset1">
			<input>
				<port id="0" precision="FP16">
					<dim>1</dim>
					<dim>128</dim>
					<dim>180</dim>
					<dim>320</dim>
				</port>
			</input>
			<output>
				<port id="1" names="175" precision="FP16">
					<dim>1</dim>
					<dim>128</dim>
					<dim>180</dim>
					<dim>320</dim>
				</port>
			</output>
		</layer>
		<layer id="88" name="Add_92" type="Add" version="opset1">
			<data auto_broadcast="numpy"/>
			<input>
				<port id="0" precision="FP16">
					<dim>1</dim>
					<dim>128</dim>
					<dim>180</dim>
					<dim>320</dim>
				</port>
				<port id="1" precision="FP16">
					<dim>1</dim>
					<dim>128</dim>
					<dim>180</dim>
					<dim>320</dim>
				</port>
			</input>
			<output>
				<port id="2" names="176" precision="FP16">
					<dim>1</dim>
					<dim>128</dim>
					<dim>180</dim>
					<dim>320</dim>
				</port>
			</output>
		</layer>
		<layer id="89" name="Relu_93" type="ReLU" version="opset1">
			<input>
				<port id="0" precision="FP16">
					<dim>1</dim>
					<dim>128</dim>
					<dim>180</dim>
					<dim>320</dim>
				</port>
			</input>
			<output>
				<port id="1" names="177" precision="FP16">
					<dim>1</dim>
					<dim>128</dim>
					<dim>180</dim>
					<dim>320</dim>
				</port>
			</output>
		</layer>
		<layer id="90" name="encoder.layers.5.branch.0.layers.0.layers.1.weight" type="Const" version="opset1">
			<data element_type="f16" offset="778776" shape="128, 128, 3, 3" size="294912"/>
			<output>
				<port id="0" names="encoder.layers.5.branch.0.layers.0.layers.1.weight" precision="FP16">
					<dim>128</dim>
					<dim>128</dim>
					<dim>3</dim>
					<dim>3</dim>
				</port>
			</output>
		</layer>
		<layer id="91" name="Conv_109/WithoutBiases" type="Convolution" version="opset1">
			<data auto_pad="explicit" dilations="1, 1" pads_begin="1, 1" pads_end="1, 1" strides="1, 1"/>
			<input>
				<port id="0" precision="FP16">
					<dim>1</dim>
					<dim>128</dim>
					<dim>180</dim>
					<dim>320</dim>
				</port>
				<port id="1" precision="FP16">
					<dim>128</dim>
					<dim>128</dim>
					<dim>3</dim>
					<dim>3</dim>
				</port>
			</input>
			<output>
				<port id="2" precision="FP16">
					<dim>1</dim>
					<dim>128</dim>
					<dim>180</dim>
					<dim>320</dim>
				</port>
			</output>
		</layer>
		<layer id="92" name="Conv_109/Dims2267" type="Const" version="opset1">
			<data element_type="f16" offset="1073688" shape="1, 128, 1, 1" size="256"/>
			<output>
				<port id="0" precision="FP16">
					<dim>1</dim>
					<dim>128</dim>
					<dim>1</dim>
					<dim>1</dim>
				</port>
			</output>
		</layer>
		<layer id="93" name="Conv_109" type="Add" version="opset1">
			<data auto_broadcast="numpy"/>
			<input>
				<port id="0" precision="FP16">
					<dim>1</dim>
					<dim>128</dim>
					<dim>180</dim>
					<dim>320</dim>
				</port>
				<port id="1" precision="FP16">
					<dim>1</dim>
					<dim>128</dim>
					<dim>1</dim>
					<dim>1</dim>
				</port>
			</input>
			<output>
				<port id="2" names="202" precision="FP16">
					<dim>1</dim>
					<dim>128</dim>
					<dim>180</dim>
					<dim>320</dim>
				</port>
			</output>
		</layer>
		<layer id="94" name="InstanceNormalization_110/Range_input_port_0/value" type="Const" version="opset1">
			<data element_type="i64" offset="1792" shape="" size="8"/>
			<output>
				<port id="0" precision="I64"/>
			</output>
		</layer>
		<layer id="95" name="InstanceNormalization_110/Rank/shape_of" type="ShapeOf" version="opset3">
			<data output_type="i64"/>
			<input>
				<port id="0" precision="FP16">
					<dim>1</dim>
					<dim>128</dim>
					<dim>180</dim>
					<dim>320</dim>
				</port>
			</input>
			<output>
				<port id="1" precision="I64">
					<dim>4</dim>
				</port>
			</output>
		</layer>
		<layer id="96" name="InstanceNormalization_110/Rank/rank_of" type="ShapeOf" version="opset3">
			<data output_type="i64"/>
			<input>
				<port id="0" precision="I64">
					<dim>4</dim>
				</port>
			</input>
			<output>
				<port id="1" precision="I64">
					<dim>1</dim>
				</port>
			</output>
		</layer>
		<layer id="97" name="InstanceNormalization_110/Rank/0d_rank_of/value" type="Const" version="opset1">
			<data element_type="i64" offset="1800" shape="1" size="8"/>
			<output>
				<port id="0" precision="I64">
					<dim>1</dim>
				</port>
			</output>
		</layer>
		<layer id="98" name="InstanceNormalization_110/Rank" type="Squeeze" version="opset1">
			<input>
				<port id="0" precision="I64">
					<dim>1</dim>
				</port>
				<port id="1" precision="I64">
					<dim>1</dim>
				</port>
			</input>
			<output>
				<port id="2" precision="I64"/>
			</output>
		</layer>
		<layer id="99" name="InstanceNormalization_110/Range_input_port_2/value" type="Const" version="opset1">
			<data element_type="i64" offset="1808" shape="" size="8"/>
			<output>
				<port id="0" precision="I64"/>
			</output>
		</layer>
		<layer id="100" name="InstanceNormalization_110/Range" type="Range" version="opset4">
			<data output_type="i64"/>
			<input>
				<port id="0" precision="I64"/>
				<port id="1" precision="I64"/>
				<port id="2" precision="I64"/>
			</input>
			<output>
				<port id="3" precision="I64">
					<dim>2</dim>
				</port>
			</output>
		</layer>
		<layer id="101" name="InstanceNormalization_110/Ins_Norm/MVN_" type="MVN" version="opset6">
			<data eps="9.9999997473787516e-06" eps_mode="INSIDE_SQRT" normalize_variance="true"/>
			<input>
				<port id="0" precision="FP16">
					<dim>1</dim>
					<dim>128</dim>
					<dim>180</dim>
					<dim>320</dim>
				</port>
				<port id="1" precision="I64">
					<dim>2</dim>
				</port>
			</input>
			<output>
				<port id="2" precision="FP16">
					<dim>1</dim>
					<dim>128</dim>
					<dim>180</dim>
					<dim>320</dim>
				</port>
			</output>
		</layer>
		<layer id="102" name="encoder.layers.5.branch.0.layers.1.weight" type="Const" version="opset1">
			<data element_type="f16" offset="1073944" shape="1, 128, 1, 1" size="256"/>
			<output>
				<port id="0" names="encoder.layers.5.branch.0.layers.1.weight" precision="FP16">
					<dim>1</dim>
					<dim>128</dim>
					<dim>1</dim>
					<dim>1</dim>
				</port>
			</output>
		</layer>
		<layer id="103" name="InstanceNormalization_110/Ins_Norm/mul_" type="Multiply" version="opset1">
			<data auto_broadcast="numpy"/>
			<input>
				<port id="0" precision="FP16">
					<dim>1</dim>
					<dim>128</dim>
					<dim>180</dim>
					<dim>320</dim>
				</port>
				<port id="1" precision="FP16">
					<dim>1</dim>
					<dim>128</dim>
					<dim>1</dim>
					<dim>1</dim>
				</port>
			</input>
			<output>
				<port id="2" precision="FP16">
					<dim>1</dim>
					<dim>128</dim>
					<dim>180</dim>
					<dim>320</dim>
				</port>
			</output>
		</layer>
		<layer id="104" name="encoder.layers.5.branch.0.layers.1.bias" type="Const" version="opset1">
			<data element_type="f16" offset="1074200" shape="1, 128, 1, 1" size="256"/>
			<output>
				<port id="0" names="encoder.layers.5.branch.0.layers.1.bias" precision="FP16">
					<dim>1</dim>
					<dim>128</dim>
					<dim>1</dim>
					<dim>1</dim>
				</port>
			</output>
		</layer>
		<layer id="105" name="InstanceNormalization_110" type="Add" version="opset1">
			<data auto_broadcast="numpy"/>
			<input>
				<port id="0" precision="FP16">
					<dim>1</dim>
					<dim>128</dim>
					<dim>180</dim>
					<dim>320</dim>
				</port>
				<port id="1" precision="FP16">
					<dim>1</dim>
					<dim>128</dim>
					<dim>1</dim>
					<dim>1</dim>
				</port>
			</input>
			<output>
				<port id="2" names="203" precision="FP16">
					<dim>1</dim>
					<dim>128</dim>
					<dim>180</dim>
					<dim>320</dim>
				</port>
			</output>
		</layer>
		<layer id="106" name="Relu_111" type="ReLU" version="opset1">
			<input>
				<port id="0" precision="FP16">
					<dim>1</dim>
					<dim>128</dim>
					<dim>180</dim>
					<dim>320</dim>
				</port>
			</input>
			<output>
				<port id="1" names="204" precision="FP16">
					<dim>1</dim>
					<dim>128</dim>
					<dim>180</dim>
					<dim>320</dim>
				</port>
			</output>
		</layer>
		<layer id="107" name="Add_112" type="Add" version="opset1">
			<data auto_broadcast="numpy"/>
			<input>
				<port id="0" precision="FP16">
					<dim>1</dim>
					<dim>128</dim>
					<dim>180</dim>
					<dim>320</dim>
				</port>
				<port id="1" precision="FP16">
					<dim>1</dim>
					<dim>128</dim>
					<dim>180</dim>
					<dim>320</dim>
				</port>
			</input>
			<output>
				<port id="2" names="205" precision="FP16">
					<dim>1</dim>
					<dim>128</dim>
					<dim>180</dim>
					<dim>320</dim>
				</port>
			</output>
		</layer>
		<layer id="108" name="Relu_113" type="ReLU" version="opset1">
			<input>
				<port id="0" precision="FP16">
					<dim>1</dim>
					<dim>128</dim>
					<dim>180</dim>
					<dim>320</dim>
				</port>
			</input>
			<output>
				<port id="1" names="206" precision="FP16">
					<dim>1</dim>
					<dim>128</dim>
					<dim>180</dim>
					<dim>320</dim>
				</port>
			</output>
		</layer>
		<layer id="109" name="encoder.layers.6.branch.0.layers.0.layers.1.weight" type="Const" version="opset1">
			<data element_type="f16" offset="1074456" shape="128, 128, 3, 3" size="294912"/>
			<output>
				<port id="0" names="encoder.layers.6.branch.0.layers.0.layers.1.weight" precision="FP16">
					<dim>128</dim>
					<dim>128</dim>
					<dim>3</dim>
					<dim>3</dim>
				</port>
			</output>
		</layer>
		<layer id="110" name="Conv_129/WithoutBiases" type="Convolution" version="opset1">
			<data auto_pad="explicit" dilations="1, 1" pads_begin="1, 1" pads_end="1, 1" strides="1, 1"/>
			<input>
				<port id="0" precision="FP16">
					<dim>1</dim>
					<dim>128</dim>
					<dim>180</dim>
					<dim>320</dim>
				</port>
				<port id="1" precision="FP16">
					<dim>128</dim>
					<dim>128</dim>
					<dim>3</dim>
					<dim>3</dim>
				</port>
			</input>
			<output>
				<port id="2" precision="FP16">
					<dim>1</dim>
					<dim>128</dim>
					<dim>180</dim>
					<dim>320</dim>
				</port>
			</output>
		</layer>
		<layer id="111" name="Conv_129/Dims2291" type="Const" version="opset1">
			<data element_type="f16" offset="1369368" shape="1, 128, 1, 1" size="256"/>
			<output>
				<port id="0" precision="FP16">
					<dim>1</dim>
					<dim>128</dim>
					<dim>1</dim>
					<dim>1</dim>
				</port>
			</output>
		</layer>
		<layer id="112" name="Conv_129" type="Add" version="opset1">
			<data auto_broadcast="numpy"/>
			<input>
				<port id="0" precision="FP16">
					<dim>1</dim>
					<dim>128</dim>
					<dim>180</dim>
					<dim>320</dim>
				</port>
				<port id="1" precision="FP16">
					<dim>1</dim>
					<dim>128</dim>
					<dim>1</dim>
					<dim>1</dim>
				</port>
			</input>
			<output>
				<port id="2" names="231" precision="FP16">
					<dim>1</dim>
					<dim>128</dim>
					<dim>180</dim>
					<dim>320</dim>
				</port>
			</output>
		</layer>
		<layer id="113" name="InstanceNormalization_130/Range_input_port_0/value" type="Const" version="opset1">
			<data element_type="i64" offset="1792" shape="" size="8"/>
			<output>
				<port id="0" precision="I64"/>
			</output>
		</layer>
		<layer id="114" name="InstanceNormalization_130/Rank/shape_of" type="ShapeOf" version="opset3">
			<data output_type="i64"/>
			<input>
				<port id="0" precision="FP16">
					<dim>1</dim>
					<dim>128</dim>
					<dim>180</dim>
					<dim>320</dim>
				</port>
			</input>
			<output>
				<port id="1" precision="I64">
					<dim>4</dim>
				</port>
			</output>
		</layer>
		<layer id="115" name="InstanceNormalization_130/Rank/rank_of" type="ShapeOf" version="opset3">
			<data output_type="i64"/>
			<input>
				<port id="0" precision="I64">
					<dim>4</dim>
				</port>
			</input>
			<output>
				<port id="1" precision="I64">
					<dim>1</dim>
				</port>
			</output>
		</layer>
		<layer id="116" name="InstanceNormalization_130/Rank/0d_rank_of/value" type="Const" version="opset1">
			<data element_type="i64" offset="1800" shape="1" size="8"/>
			<output>
				<port id="0" precision="I64">
					<dim>1</dim>
				</port>
			</output>
		</layer>
		<layer id="117" name="InstanceNormalization_130/Rank" type="Squeeze" version="opset1">
			<input>
				<port id="0" precision="I64">
					<dim>1</dim>
				</port>
				<port id="1" precision="I64">
					<dim>1</dim>
				</port>
			</input>
			<output>
				<port id="2" precision="I64"/>
			</output>
		</layer>
		<layer id="118" name="InstanceNormalization_130/Range_input_port_2/value" type="Const" version="opset1">
			<data element_type="i64" offset="1808" shape="" size="8"/>
			<output>
				<port id="0" precision="I64"/>
			</output>
		</layer>
		<layer id="119" name="InstanceNormalization_130/Range" type="Range" version="opset4">
			<data output_type="i64"/>
			<input>
				<port id="0" precision="I64"/>
				<port id="1" precision="I64"/>
				<port id="2" precision="I64"/>
			</input>
			<output>
				<port id="3" precision="I64">
					<dim>2</dim>
				</port>
			</output>
		</layer>
		<layer id="120" name="InstanceNormalization_130/Ins_Norm/MVN_" type="MVN" version="opset6">
			<data eps="9.9999997473787516e-06" eps_mode="INSIDE_SQRT" normalize_variance="true"/>
			<input>
				<port id="0" precision="FP16">
					<dim>1</dim>
					<dim>128</dim>
					<dim>180</dim>
					<dim>320</dim>
				</port>
				<port id="1" precision="I64">
					<dim>2</dim>
				</port>
			</input>
			<output>
				<port id="2" precision="FP16">
					<dim>1</dim>
					<dim>128</dim>
					<dim>180</dim>
					<dim>320</dim>
				</port>
			</output>
		</layer>
		<layer id="121" name="encoder.layers.6.branch.0.layers.1.weight" type="Const" version="opset1">
			<data element_type="f16" offset="1369624" shape="1, 128, 1, 1" size="256"/>
			<output>
				<port id="0" names="encoder.layers.6.branch.0.layers.1.weight" precision="FP16">
					<dim>1</dim>
					<dim>128</dim>
					<dim>1</dim>
					<dim>1</dim>
				</port>
			</output>
		</layer>
		<layer id="122" name="InstanceNormalization_130/Ins_Norm/mul_" type="Multiply" version="opset1">
			<data auto_broadcast="numpy"/>
			<input>
				<port id="0" precision="FP16">
					<dim>1</dim>
					<dim>128</dim>
					<dim>180</dim>
					<dim>320</dim>
				</port>
				<port id="1" precision="FP16">
					<dim>1</dim>
					<dim>128</dim>
					<dim>1</dim>
					<dim>1</dim>
				</port>
			</input>
			<output>
				<port id="2" precision="FP16">
					<dim>1</dim>
					<dim>128</dim>
					<dim>180</dim>
					<dim>320</dim>
				</port>
			</output>
		</layer>
		<layer id="123" name="encoder.layers.6.branch.0.layers.1.bias" type="Const" version="opset1">
			<data element_type="f16" offset="1369880" shape="1, 128, 1, 1" size="256"/>
			<output>
				<port id="0" names="encoder.layers.6.branch.0.layers.1.bias" precision="FP16">
					<dim>1</dim>
					<dim>128</dim>
					<dim>1</dim>
					<dim>1</dim>
				</port>
			</output>
		</layer>
		<layer id="124" name="InstanceNormalization_130" type="Add" version="opset1">
			<data auto_broadcast="numpy"/>
			<input>
				<port id="0" precision="FP16">
					<dim>1</dim>
					<dim>128</dim>
					<dim>180</dim>
					<dim>320</dim>
				</port>
				<port id="1" precision="FP16">
					<dim>1</dim>
					<dim>128</dim>
					<dim>1</dim>
					<dim>1</dim>
				</port>
			</input>
			<output>
				<port id="2" names="232" precision="FP16">
					<dim>1</dim>
					<dim>128</dim>
					<dim>180</dim>
					<dim>320</dim>
				</port>
			</output>
		</layer>
		<layer id="125" name="Relu_131" type="ReLU" version="opset1">
			<input>
				<port id="0" precision="FP16">
					<dim>1</dim>
					<dim>128</dim>
					<dim>180</dim>
					<dim>320</dim>
				</port>
			</input>
			<output>
				<port id="1" names="233" precision="FP16">
					<dim>1</dim>
					<dim>128</dim>
					<dim>180</dim>
					<dim>320</dim>
				</port>
			</output>
		</layer>
		<layer id="126" name="Add_132" type="Add" version="opset1">
			<data auto_broadcast="numpy"/>
			<input>
				<port id="0" precision="FP16">
					<dim>1</dim>
					<dim>128</dim>
					<dim>180</dim>
					<dim>320</dim>
				</port>
				<port id="1" precision="FP16">
					<dim>1</dim>
					<dim>128</dim>
					<dim>180</dim>
					<dim>320</dim>
				</port>
			</input>
			<output>
				<port id="2" names="234" precision="FP16">
					<dim>1</dim>
					<dim>128</dim>
					<dim>180</dim>
					<dim>320</dim>
				</port>
			</output>
		</layer>
		<layer id="127" name="Relu_133" type="ReLU" version="opset1">
			<input>
				<port id="0" precision="FP16">
					<dim>1</dim>
					<dim>128</dim>
					<dim>180</dim>
					<dim>320</dim>
				</port>
			</input>
			<output>
				<port id="1" names="235" precision="FP16">
					<dim>1</dim>
					<dim>128</dim>
					<dim>180</dim>
					<dim>320</dim>
				</port>
			</output>
		</layer>
		<layer id="128" name="Resize_134/ShapeOf" type="ShapeOf" version="opset3">
			<data output_type="i64"/>
			<input>
				<port id="0" precision="FP16">
					<dim>1</dim>
					<dim>128</dim>
					<dim>180</dim>
					<dim>320</dim>
				</port>
			</input>
			<output>
				<port id="1" precision="I64">
					<dim>4</dim>
				</port>
			</output>
		</layer>
		<layer id="129" name="1882" type="Convert" version="opset1">
			<data destination_type="f32"/>
			<input>
				<port id="0" precision="I64">
					<dim>4</dim>
				</port>
			</input>
			<output>
				<port id="1" precision="FP32">
					<dim>4</dim>
				</port>
			</output>
		</layer>
		<layer id="130" name="361" type="Const" version="opset1">
			<data element_type="f32" offset="1370136" shape="4" size="16"/>
			<output>
				<port id="0" names="361" precision="FP32">
					<dim>4</dim>
				</port>
			</output>
		</layer>
		<layer id="131" name="Resize_134/Mul" type="Multiply" version="opset1">
			<data auto_broadcast="numpy"/>
			<input>
				<port id="0" precision="FP32">
					<dim>4</dim>
				</port>
				<port id="1" precision="FP32">
					<dim>4</dim>
				</port>
			</input>
			<output>
				<port id="2" precision="FP32">
					<dim>4</dim>
				</port>
			</output>
		</layer>
		<layer id="132" name="Resize_134/Add_input_port_1/value18817096" type="Const" version="opset1">
			<data element_type="f32" offset="1370152" shape="1" size="4"/>
			<output>
				<port id="0" precision="FP32">
					<dim>1</dim>
				</port>
			</output>
		</layer>
		<layer id="133" name="Resize_134/Add" type="Add" version="opset1">
			<data auto_broadcast="numpy"/>
			<input>
				<port id="0" precision="FP32">
					<dim>4</dim>
				</port>
				<port id="1" precision="FP32">
					<dim>1</dim>
				</port>
			</input>
			<output>
				<port id="2" precision="FP32">
					<dim>4</dim>
				</port>
			</output>
		</layer>
		<layer id="134" name="Resize_134/Floor" type="Floor" version="opset1">
			<input>
				<port id="0" precision="FP32">
					<dim>4</dim>
				</port>
			</input>
			<output>
				<port id="1" precision="FP32">
					<dim>4</dim>
				</port>
			</output>
		</layer>
		<layer id="135" name="1886" type="Convert" version="opset1">
			<data destination_type="i64"/>
			<input>
				<port id="0" precision="FP32">
					<dim>4</dim>
				</port>
			</input>
			<output>
				<port id="1" precision="I64">
					<dim>4</dim>
				</port>
			</output>
		</layer>
		<layer id="136" name="Resize_134/StridedSlice_sizes_input_port_1/value18636898" type="Const" version="opset1">
			<data element_type="i64" offset="1792" shape="1" size="8"/>
			<output>
				<port id="0" precision="I64">
					<dim>1</dim>
				</port>
			</output>
		</layer>
		<layer id="137" name="Resize_134/StridedSlice_sizes_input_port_2/value18656880" type="Const" version="opset1">
			<data element_type="i64" offset="1370156" shape="1" size="8"/>
			<output>
				<port id="0" precision="I64">
					<dim>1</dim>
				</port>
			</output>
		</layer>
		<layer id="138" name="Resize_134/StridedSlice_sizes_input_port_3/value18676988" type="Const" version="opset1">
			<data element_type="i64" offset="1808" shape="1" size="8"/>
			<output>
				<port id="0" precision="I64">
					<dim>1</dim>
				</port>
			</output>
		</layer>
		<layer id="139" name="Resize_134/StridedSlice_sizes" type="StridedSlice" version="opset1">
			<data begin_mask="0" ellipsis_mask="0" end_mask="0" new_axis_mask="0" shrink_axis_mask="0"/>
			<input>
				<port id="0" precision="I64">
					<dim>4</dim>
				</port>
				<port id="1" precision="I64">
					<dim>1</dim>
				</port>
				<port id="2" precision="I64">
					<dim>1</dim>
				</port>
				<port id="3" precision="I64">
					<dim>1</dim>
				</port>
			</input>
			<output>
				<port id="4" precision="I64">
					<dim>2</dim>
				</port>
			</output>
		</layer>
		<layer id="140" name="Resize_134/StridedSlice_scales18937012" type="Const" version="opset1">
			<data element_type="f32" offset="1370164" shape="2" size="8"/>
			<output>
				<port id="0" precision="FP32">
					<dim>2</dim>
				</port>
			</output>
		</layer>
		<layer id="141" name="Resize_134/axis18776919" type="Const" version="opset1">
			<data element_type="i64" offset="1370172" shape="2" size="16"/>
			<output>
				<port id="0" precision="I64">
					<dim>2</dim>
				</port>
			</output>
		</layer>
		<layer id="142" name="Resize_134" type="Interpolate" version="opset4">
			<data antialias="false" coordinate_transformation_mode="asymmetric" cube_coeff="-0.75" mode="nearest" nearest_mode="floor" pads_begin="0, 0, 0, 0" pads_end="0, 0, 0, 0" shape_calculation_mode="scales"/>
			<input>
				<port id="0" precision="FP16">
					<dim>1</dim>
					<dim>128</dim>
					<dim>180</dim>
					<dim>320</dim>
				</port>
				<port id="1" precision="I64">
					<dim>2</dim>
				</port>
				<port id="2" precision="FP32">
					<dim>2</dim>
				</port>
				<port id="3" precision="I64">
					<dim>2</dim>
				</port>
			</input>
			<output>
				<port id="4" names="240" precision="FP16">
					<dim>1</dim>
					<dim>128</dim>
					<dim>360</dim>
					<dim>640</dim>
				</port>
			</output>
		</layer>
		<layer id="143" name="decoder.layers.1.layers.0.layers.1.weight" type="Const" version="opset1">
			<data element_type="f16" offset="1370188" shape="64, 128, 3, 3" size="147456"/>
			<output>
				<port id="0" names="decoder.layers.1.layers.0.layers.1.weight" precision="FP16">
					<dim>64</dim>
					<dim>128</dim>
					<dim>3</dim>
					<dim>3</dim>
				</port>
			</output>
		</layer>
		<layer id="144" name="Conv_150/WithoutBiases" type="Convolution" version="opset1">
			<data auto_pad="explicit" dilations="1, 1" pads_begin="1, 1" pads_end="1, 1" strides="1, 1"/>
			<input>
				<port id="0" precision="FP16">
					<dim>1</dim>
					<dim>128</dim>
					<dim>360</dim>
					<dim>640</dim>
				</port>
				<port id="1" precision="FP16">
					<dim>64</dim>
					<dim>128</dim>
					<dim>3</dim>
					<dim>3</dim>
				</port>
			</input>
			<output>
				<port id="2" precision="FP16">
					<dim>1</dim>
					<dim>64</dim>
					<dim>360</dim>
					<dim>640</dim>
				</port>
			</output>
		</layer>
		<layer id="145" name="Conv_150/Dims2279" type="Const" version="opset1">
			<data element_type="f16" offset="1517644" shape="1, 64, 1, 1" size="128"/>
			<output>
				<port id="0" precision="FP16">
					<dim>1</dim>
					<dim>64</dim>
					<dim>1</dim>
					<dim>1</dim>
				</port>
			</output>
		</layer>
		<layer id="146" name="Conv_150" type="Add" version="opset1">
			<data auto_broadcast="numpy"/>
			<input>
				<port id="0" precision="FP16">
					<dim>1</dim>
					<dim>64</dim>
					<dim>360</dim>
					<dim>640</dim>
				</port>
				<port id="1" precision="FP16">
					<dim>1</dim>
					<dim>64</dim>
					<dim>1</dim>
					<dim>1</dim>
				</port>
			</input>
			<output>
				<port id="2" names="265" precision="FP16">
					<dim>1</dim>
					<dim>64</dim>
					<dim>360</dim>
					<dim>640</dim>
				</port>
			</output>
		</layer>
		<layer id="147" name="InstanceNormalization_151/Range_input_port_0/value" type="Const" version="opset1">
			<data element_type="i64" offset="1792" shape="" size="8"/>
			<output>
				<port id="0" precision="I64"/>
			</output>
		</layer>
		<layer id="148" name="InstanceNormalization_151/Rank/shape_of" type="ShapeOf" version="opset3">
			<data output_type="i64"/>
			<input>
				<port id="0" precision="FP16">
					<dim>1</dim>
					<dim>64</dim>
					<dim>360</dim>
					<dim>640</dim>
				</port>
			</input>
			<output>
				<port id="1" precision="I64">
					<dim>4</dim>
				</port>
			</output>
		</layer>
		<layer id="149" name="InstanceNormalization_151/Rank/rank_of" type="ShapeOf" version="opset3">
			<data output_type="i64"/>
			<input>
				<port id="0" precision="I64">
					<dim>4</dim>
				</port>
			</input>
			<output>
				<port id="1" precision="I64">
					<dim>1</dim>
				</port>
			</output>
		</layer>
		<layer id="150" name="InstanceNormalization_151/Rank/0d_rank_of/value" type="Const" version="opset1">
			<data element_type="i64" offset="1800" shape="1" size="8"/>
			<output>
				<port id="0" precision="I64">
					<dim>1</dim>
				</port>
			</output>
		</layer>
		<layer id="151" name="InstanceNormalization_151/Rank" type="Squeeze" version="opset1">
			<input>
				<port id="0" precision="I64">
					<dim>1</dim>
				</port>
				<port id="1" precision="I64">
					<dim>1</dim>
				</port>
			</input>
			<output>
				<port id="2" precision="I64"/>
			</output>
		</layer>
		<layer id="152" name="InstanceNormalization_151/Range_input_port_2/value" type="Const" version="opset1">
			<data element_type="i64" offset="1808" shape="" size="8"/>
			<output>
				<port id="0" precision="I64"/>
			</output>
		</layer>
		<layer id="153" name="InstanceNormalization_151/Range" type="Range" version="opset4">
			<data output_type="i64"/>
			<input>
				<port id="0" precision="I64"/>
				<port id="1" precision="I64"/>
				<port id="2" precision="I64"/>
			</input>
			<output>
				<port id="3" precision="I64">
					<dim>2</dim>
				</port>
			</output>
		</layer>
		<layer id="154" name="InstanceNormalization_151/Ins_Norm/MVN_" type="MVN" version="opset6">
			<data eps="9.9999997473787516e-06" eps_mode="INSIDE_SQRT" normalize_variance="true"/>
			<input>
				<port id="0" precision="FP16">
					<dim>1</dim>
					<dim>64</dim>
					<dim>360</dim>
					<dim>640</dim>
				</port>
				<port id="1" precision="I64">
					<dim>2</dim>
				</port>
			</input>
			<output>
				<port id="2" precision="FP16">
					<dim>1</dim>
					<dim>64</dim>
					<dim>360</dim>
					<dim>640</dim>
				</port>
			</output>
		</layer>
		<layer id="155" name="decoder.layers.1.layers.1.weight" type="Const" version="opset1">
			<data element_type="f16" offset="1517772" shape="1, 64, 1, 1" size="128"/>
			<output>
				<port id="0" names="decoder.layers.1.layers.1.weight" precision="FP16">
					<dim>1</dim>
					<dim>64</dim>
					<dim>1</dim>
					<dim>1</dim>
				</port>
			</output>
		</layer>
		<layer id="156" name="InstanceNormalization_151/Ins_Norm/mul_" type="Multiply" version="opset1">
			<data auto_broadcast="numpy"/>
			<input>
				<port id="0" precision="FP16">
					<dim>1</dim>
					<dim>64</dim>
					<dim>360</dim>
					<dim>640</dim>
				</port>
				<port id="1" precision="FP16">
					<dim>1</dim>
					<dim>64</dim>
					<dim>1</dim>
					<dim>1</dim>
				</port>
			</input>
			<output>
				<port id="2" precision="FP16">
					<dim>1</dim>
					<dim>64</dim>
					<dim>360</dim>
					<dim>640</dim>
				</port>
			</output>
		</layer>
		<layer id="157" name="decoder.layers.1.layers.1.bias" type="Const" version="opset1">
			<data element_type="f16" offset="1517900" shape="1, 64, 1, 1" size="128"/>
			<output>
				<port id="0" names="decoder.layers.1.layers.1.bias" precision="FP16">
					<dim>1</dim>
					<dim>64</dim>
					<dim>1</dim>
					<dim>1</dim>
				</port>
			</output>
		</layer>
		<layer id="158" name="InstanceNormalization_151" type="Add" version="opset1">
			<data auto_broadcast="numpy"/>
			<input>
				<port id="0" precision="FP16">
					<dim>1</dim>
					<dim>64</dim>
					<dim>360</dim>
					<dim>640</dim>
				</port>
				<port id="1" precision="FP16">
					<dim>1</dim>
					<dim>64</dim>
					<dim>1</dim>
					<dim>1</dim>
				</port>
			</input>
			<output>
				<port id="2" names="266" precision="FP16">
					<dim>1</dim>
					<dim>64</dim>
					<dim>360</dim>
					<dim>640</dim>
				</port>
			</output>
		</layer>
		<layer id="159" name="Relu_152" type="ReLU" version="opset1">
			<input>
				<port id="0" precision="FP16">
					<dim>1</dim>
					<dim>64</dim>
					<dim>360</dim>
					<dim>640</dim>
				</port>
			</input>
			<output>
				<port id="1" names="267" precision="FP16">
					<dim>1</dim>
					<dim>64</dim>
					<dim>360</dim>
					<dim>640</dim>
				</port>
			</output>
		</layer>
		<layer id="160" name="Resize_153/ShapeOf" type="ShapeOf" version="opset3">
			<data output_type="i64"/>
			<input>
				<port id="0" precision="FP16">
					<dim>1</dim>
					<dim>64</dim>
					<dim>360</dim>
					<dim>640</dim>
				</port>
			</input>
			<output>
				<port id="1" precision="I64">
					<dim>4</dim>
				</port>
			</output>
		</layer>
		<layer id="161" name="1916" type="Convert" version="opset1">
			<data destination_type="f32"/>
			<input>
				<port id="0" precision="I64">
					<dim>4</dim>
				</port>
			</input>
			<output>
				<port id="1" precision="FP32">
					<dim>4</dim>
				</port>
			</output>
		</layer>
		<layer id="162" name="367" type="Const" version="opset1">
			<data element_type="f32" offset="1370136" shape="4" size="16"/>
			<output>
				<port id="0" names="367" precision="FP32">
					<dim>4</dim>
				</port>
			</output>
		</layer>
		<layer id="163" name="Resize_153/Mul" type="Multiply" version="opset1">
			<data auto_broadcast="numpy"/>
			<input>
				<port id="0" precision="FP32">
					<dim>4</dim>
				</port>
				<port id="1" precision="FP32">
					<dim>4</dim>
				</port>
			</input>
			<output>
				<port id="2" precision="FP32">
					<dim>4</dim>
				</port>
			</output>
		</layer>
		<layer id="164" name="Resize_153/Add_input_port_1/value19156994" type="Const" version="opset1">
			<data element_type="f32" offset="1370152" shape="1" size="4"/>
			<output>
				<port id="0" precision="FP32">
					<dim>1</dim>
				</port>
			</output>
		</layer>
		<layer id="165" name="Resize_153/Add" type="Add" version="opset1">
			<data auto_broadcast="numpy"/>
			<input>
				<port id="0" precision="FP32">
					<dim>4</dim>
				</port>
				<port id="1" precision="FP32">
					<dim>1</dim>
				</port>
			</input>
			<output>
				<port id="2" precision="FP32">
					<dim>4</dim>
				</port>
			</output>
		</layer>
		<layer id="166" name="Resize_153/Floor" type="Floor" version="opset1">
			<input>
				<port id="0" precision="FP32">
					<dim>4</dim>
				</port>
			</input>
			<output>
				<port id="1" precision="FP32">
					<dim>4</dim>
				</port>
			</output>
		</layer>
		<layer id="167" name="1920" type="Convert" version="opset1">
			<data destination_type="i64"/>
			<input>
				<port id="0" precision="FP32">
					<dim>4</dim>
				</port>
			</input>
			<output>
				<port id="1" precision="I64">
					<dim>4</dim>
				</port>
			</output>
		</layer>
		<layer id="168" name="Resize_153/StridedSlice_sizes_input_port_1/value18977024" type="Const" version="opset1">
			<data element_type="i64" offset="1792" shape="1" size="8"/>
			<output>
				<port id="0" precision="I64">
					<dim>1</dim>
				</port>
			</output>
		</layer>
		<layer id="169" name="Resize_153/StridedSlice_sizes_input_port_2/value18996883" type="Const" version="opset1">
			<data element_type="i64" offset="1370156" shape="1" size="8"/>
			<output>
				<port id="0" precision="I64">
					<dim>1</dim>
				</port>
			</output>
		</layer>
		<layer id="170" name="Resize_153/StridedSlice_sizes_input_port_3/value19016949" type="Const" version="opset1">
			<data element_type="i64" offset="1808" shape="1" size="8"/>
			<output>
				<port id="0" precision="I64">
					<dim>1</dim>
				</port>
			</output>
		</layer>
		<layer id="171" name="Resize_153/StridedSlice_sizes" type="StridedSlice" version="opset1">
			<data begin_mask="0" ellipsis_mask="0" end_mask="0" new_axis_mask="0" shrink_axis_mask="0"/>
			<input>
				<port id="0" precision="I64">
					<dim>4</dim>
				</port>
				<port id="1" precision="I64">
					<dim>1</dim>
				</port>
				<port id="2" precision="I64">
					<dim>1</dim>
				</port>
				<port id="3" precision="I64">
					<dim>1</dim>
				</port>
			</input>
			<output>
				<port id="4" precision="I64">
					<dim>2</dim>
				</port>
			</output>
		</layer>
		<layer id="172" name="Resize_153/StridedSlice_scales19276910" type="Const" version="opset1">
			<data element_type="f32" offset="1370164" shape="2" size="8"/>
			<output>
				<port id="0" precision="FP32">
					<dim>2</dim>
				</port>
			</output>
		</layer>
		<layer id="173" name="Resize_153/axis19117009" type="Const" version="opset1">
			<data element_type="i64" offset="1370172" shape="2" size="16"/>
			<output>
				<port id="0" precision="I64">
					<dim>2</dim>
				</port>
			</output>
		</layer>
		<layer id="174" name="Resize_153" type="Interpolate" version="opset4">
			<data antialias="false" coordinate_transformation_mode="asymmetric" cube_coeff="-0.75" mode="nearest" nearest_mode="floor" pads_begin="0, 0, 0, 0" pads_end="0, 0, 0, 0" shape_calculation_mode="scales"/>
			<input>
				<port id="0" precision="FP16">
					<dim>1</dim>
					<dim>64</dim>
					<dim>360</dim>
					<dim>640</dim>
				</port>
				<port id="1" precision="I64">
					<dim>2</dim>
				</port>
				<port id="2" precision="FP32">
					<dim>2</dim>
				</port>
				<port id="3" precision="I64">
					<dim>2</dim>
				</port>
			</input>
			<output>
				<port id="4" names="272" precision="FP16">
					<dim>1</dim>
					<dim>64</dim>
					<dim>720</dim>
					<dim>1280</dim>
				</port>
			</output>
		</layer>
		<layer id="175" name="decoder.layers.3.layers.0.layers.1.weight" type="Const" version="opset1">
			<data element_type="f16" offset="1518028" shape="32, 64, 3, 3" size="36864"/>
			<output>
				<port id="0" names="decoder.layers.3.layers.0.layers.1.weight" precision="FP16">
					<dim>32</dim>
					<dim>64</dim>
					<dim>3</dim>
					<dim>3</dim>
				</port>
			</output>
		</layer>
		<layer id="176" name="Conv_169/WithoutBiases" type="Convolution" version="opset1">
			<data auto_pad="explicit" dilations="1, 1" pads_begin="1, 1" pads_end="1, 1" strides="1, 1"/>
			<input>
				<port id="0" precision="FP16">
					<dim>1</dim>
					<dim>64</dim>
					<dim>720</dim>
					<dim>1280</dim>
				</port>
				<port id="1" precision="FP16">
					<dim>32</dim>
					<dim>64</dim>
					<dim>3</dim>
					<dim>3</dim>
				</port>
			</input>
			<output>
				<port id="2" precision="FP16">
					<dim>1</dim>
					<dim>32</dim>
					<dim>720</dim>
					<dim>1280</dim>
				</port>
			</output>
		</layer>
		<layer id="177" name="Conv_169/Dims2315" type="Const" version="opset1">
			<data element_type="f16" offset="1554892" shape="1, 32, 1, 1" size="64"/>
			<output>
				<port id="0" precision="FP16">
					<dim>1</dim>
					<dim>32</dim>
					<dim>1</dim>
					<dim>1</dim>
				</port>
			</output>
		</layer>
		<layer id="178" name="Conv_169" type="Add" version="opset1">
			<data auto_broadcast="numpy"/>
			<input>
				<port id="0" precision="FP16">
					<dim>1</dim>
					<dim>32</dim>
					<dim>720</dim>
					<dim>1280</dim>
				</port>
				<port id="1" precision="FP16">
					<dim>1</dim>
					<dim>32</dim>
					<dim>1</dim>
					<dim>1</dim>
				</port>
			</input>
			<output>
				<port id="2" names="297" precision="FP16">
					<dim>1</dim>
					<dim>32</dim>
					<dim>720</dim>
					<dim>1280</dim>
				</port>
			</output>
		</layer>
		<layer id="179" name="InstanceNormalization_170/Range_input_port_0/value" type="Const" version="opset1">
			<data element_type="i64" offset="1792" shape="" size="8"/>
			<output>
				<port id="0" precision="I64"/>
			</output>
		</layer>
		<layer id="180" name="InstanceNormalization_170/Rank/shape_of" type="ShapeOf" version="opset3">
			<data output_type="i64"/>
			<input>
				<port id="0" precision="FP16">
					<dim>1</dim>
					<dim>32</dim>
					<dim>720</dim>
					<dim>1280</dim>
				</port>
			</input>
			<output>
				<port id="1" precision="I64">
					<dim>4</dim>
				</port>
			</output>
		</layer>
		<layer id="181" name="InstanceNormalization_170/Rank/rank_of" type="ShapeOf" version="opset3">
			<data output_type="i64"/>
			<input>
				<port id="0" precision="I64">
					<dim>4</dim>
				</port>
			</input>
			<output>
				<port id="1" precision="I64">
					<dim>1</dim>
				</port>
			</output>
		</layer>
		<layer id="182" name="InstanceNormalization_170/Rank/0d_rank_of/value" type="Const" version="opset1">
			<data element_type="i64" offset="1800" shape="1" size="8"/>
			<output>
				<port id="0" precision="I64">
					<dim>1</dim>
				</port>
			</output>
		</layer>
		<layer id="183" name="InstanceNormalization_170/Rank" type="Squeeze" version="opset1">
			<input>
				<port id="0" precision="I64">
					<dim>1</dim>
				</port>
				<port id="1" precision="I64">
					<dim>1</dim>
				</port>
			</input>
			<output>
				<port id="2" precision="I64"/>
			</output>
		</layer>
		<layer id="184" name="InstanceNormalization_170/Range_input_port_2/value" type="Const" version="opset1">
			<data element_type="i64" offset="1808" shape="" size="8"/>
			<output>
				<port id="0" precision="I64"/>
			</output>
		</layer>
		<layer id="185" name="InstanceNormalization_170/Range" type="Range" version="opset4">
			<data output_type="i64"/>
			<input>
				<port id="0" precision="I64"/>
				<port id="1" precision="I64"/>
				<port id="2" precision="I64"/>
			</input>
			<output>
				<port id="3" precision="I64">
					<dim>2</dim>
				</port>
			</output>
		</layer>
		<layer id="186" name="InstanceNormalization_170/Ins_Norm/MVN_" type="MVN" version="opset6">
			<data eps="9.9999997473787516e-06" eps_mode="INSIDE_SQRT" normalize_variance="true"/>
			<input>
				<port id="0" precision="FP16">
					<dim>1</dim>
					<dim>32</dim>
					<dim>720</dim>
					<dim>1280</dim>
				</port>
				<port id="1" precision="I64">
					<dim>2</dim>
				</port>
			</input>
			<output>
				<port id="2" precision="FP16">
					<dim>1</dim>
					<dim>32</dim>
					<dim>720</dim>
					<dim>1280</dim>
				</port>
			</output>
		</layer>
		<layer id="187" name="decoder.layers.3.layers.1.weight" type="Const" version="opset1">
			<data element_type="f16" offset="1554956" shape="1, 32, 1, 1" size="64"/>
			<output>
				<port id="0" names="decoder.layers.3.layers.1.weight" precision="FP16">
					<dim>1</dim>
					<dim>32</dim>
					<dim>1</dim>
					<dim>1</dim>
				</port>
			</output>
		</layer>
		<layer id="188" name="InstanceNormalization_170/Ins_Norm/mul_" type="Multiply" version="opset1">
			<data auto_broadcast="numpy"/>
			<input>
				<port id="0" precision="FP16">
					<dim>1</dim>
					<dim>32</dim>
					<dim>720</dim>
					<dim>1280</dim>
				</port>
				<port id="1" precision="FP16">
					<dim>1</dim>
					<dim>32</dim>
					<dim>1</dim>
					<dim>1</dim>
				</port>
			</input>
			<output>
				<port id="2" precision="FP16">
					<dim>1</dim>
					<dim>32</dim>
					<dim>720</dim>
					<dim>1280</dim>
				</port>
			</output>
		</layer>
		<layer id="189" name="decoder.layers.3.layers.1.bias" type="Const" version="opset1">
			<data element_type="f16" offset="1555020" shape="1, 32, 1, 1" size="64"/>
			<output>
				<port id="0" names="decoder.layers.3.layers.1.bias" precision="FP16">
					<dim>1</dim>
					<dim>32</dim>
					<dim>1</dim>
					<dim>1</dim>
				</port>
			</output>
		</layer>
		<layer id="190" name="InstanceNormalization_170" type="Add" version="opset1">
			<data auto_broadcast="numpy"/>
			<input>
				<port id="0" precision="FP16">
					<dim>1</dim>
					<dim>32</dim>
					<dim>720</dim>
					<dim>1280</dim>
				</port>
				<port id="1" precision="FP16">
					<dim>1</dim>
					<dim>32</dim>
					<dim>1</dim>
					<dim>1</dim>
				</port>
			</input>
			<output>
				<port id="2" names="298" precision="FP16">
					<dim>1</dim>
					<dim>32</dim>
					<dim>720</dim>
					<dim>1280</dim>
				</port>
			</output>
		</layer>
		<layer id="191" name="Relu_171" type="ReLU" version="opset1">
			<input>
				<port id="0" precision="FP16">
					<dim>1</dim>
					<dim>32</dim>
					<dim>720</dim>
					<dim>1280</dim>
				</port>
			</input>
			<output>
				<port id="1" names="299" precision="FP16">
					<dim>1</dim>
					<dim>32</dim>
					<dim>720</dim>
					<dim>1280</dim>
				</port>
			</output>
		</layer>
		<layer id="192" name="decoder.layers.4.layers.0.layers.1.weight" type="Const" version="opset1">
			<data element_type="f16" offset="1555084" shape="3, 32, 3, 3" size="1728"/>
			<output>
				<port id="0" names="decoder.layers.4.layers.0.layers.1.weight" precision="FP16">
					<dim>3</dim>
					<dim>32</dim>
					<dim>3</dim>
					<dim>3</dim>
				</port>
			</output>
		</layer>
		<layer id="193" name="Conv_187/WithoutBiases" type="Convolution" version="opset1">
			<data auto_pad="explicit" dilations="1, 1" pads_begin="1, 1" pads_end="1, 1" strides="1, 1"/>
			<input>
				<port id="0" precision="FP16">
					<dim>1</dim>
					<dim>32</dim>
					<dim>720</dim>
					<dim>1280</dim>
				</port>
				<port id="1" precision="FP16">
					<dim>3</dim>
					<dim>32</dim>
					<dim>3</dim>
					<dim>3</dim>
				</port>
			</input>
			<output>
				<port id="2" precision="FP16">
					<dim>1</dim>
					<dim>3</dim>
					<dim>720</dim>
					<dim>1280</dim>
				</port>
			</output>
		</layer>
		<layer id="194" name="Conv_187/Dims2297" type="Const" version="opset1">
			<data element_type="f16" offset="1556812" shape="1, 3, 1, 1" size="6"/>
			<output>
				<port id="0" precision="FP16">
					<dim>1</dim>
					<dim>3</dim>
					<dim>1</dim>
					<dim>1</dim>
				</port>
			</output>
		</layer>
		<layer id="195" name="Conv_187" type="Add" version="opset1">
			<data auto_broadcast="numpy"/>
			<input>
				<port id="0" precision="FP16">
					<dim>1</dim>
					<dim>3</dim>
					<dim>720</dim>
					<dim>1280</dim>
				</port>
				<port id="1" precision="FP16">
					<dim>1</dim>
					<dim>3</dim>
					<dim>1</dim>
					<dim>1</dim>
				</port>
			</input>
			<output>
				<port id="2" names="324" precision="FP16">
					<dim>1</dim>
					<dim>3</dim>
					<dim>720</dim>
					<dim>1280</dim>
				</port>
			</output>
		</layer>
		<layer id="196" name="outputImage" type="Tanh" version="opset1">
			<input>
				<port id="0" precision="FP16">
					<dim>1</dim>
					<dim>3</dim>
					<dim>720</dim>
					<dim>1280</dim>
				</port>
			</input>
			<output>
				<port id="1" names="outputImage" precision="FP16">
					<dim>1</dim>
					<dim>3</dim>
					<dim>720</dim>
					<dim>1280</dim>
				</port>
			</output>
		</layer>
		<layer id="197" name="outputImage/sink_port_0" type="Result" version="opset1">
			<input>
				<port id="0" precision="FP16">
					<dim>1</dim>
					<dim>3</dim>
					<dim>720</dim>
					<dim>1280</dim>
				</port>
			</input>
		</layer>
	</layers>
	<edges>
		<edge from-layer="0" from-port="0" to-layer="2" to-port="0"/>
		<edge from-layer="1" from-port="0" to-layer="2" to-port="1"/>
		<edge from-layer="2" from-port="2" to-layer="4" to-port="0"/>
		<edge from-layer="3" from-port="0" to-layer="4" to-port="1"/>
		<edge from-layer="4" from-port="2" to-layer="6" to-port="0"/>
		<edge from-layer="4" from-port="2" to-layer="12" to-port="0"/>
		<edge from-layer="5" from-port="0" to-layer="11" to-port="0"/>
		<edge from-layer="6" from-port="1" to-layer="7" to-port="0"/>
		<edge from-layer="7" from-port="1" to-layer="9" to-port="0"/>
		<edge from-layer="8" from-port="0" to-layer="9" to-port="1"/>
		<edge from-layer="9" from-port="2" to-layer="11" to-port="1"/>
		<edge from-layer="10" from-port="0" to-layer="11" to-port="2"/>
		<edge from-layer="11" from-port="3" to-layer="12" to-port="1"/>
		<edge from-layer="12" from-port="2" to-layer="14" to-port="0"/>
		<edge from-layer="13" from-port="0" to-layer="14" to-port="1"/>
		<edge from-layer="14" from-port="2" to-layer="16" to-port="0"/>
		<edge from-layer="15" from-port="0" to-layer="16" to-port="1"/>
		<edge from-layer="16" from-port="2" to-layer="17" to-port="0"/>
		<edge from-layer="17" from-port="1" to-layer="19" to-port="0"/>
		<edge from-layer="18" from-port="0" to-layer="19" to-port="1"/>
		<edge from-layer="19" from-port="2" to-layer="21" to-port="0"/>
		<edge from-layer="20" from-port="0" to-layer="21" to-port="1"/>
		<edge from-layer="21" from-port="2" to-layer="23" to-port="0"/>
		<edge from-layer="21" from-port="2" to-layer="29" to-port="0"/>
		<edge from-layer="22" from-port="0" to-layer="28" to-port="0"/>
		<edge from-layer="23" from-port="1" to-layer="24" to-port="0"/>
		<edge from-layer="24" from-port="1" to-layer="26" to-port="0"/>
		<edge from-layer="25" from-port="0" to-layer="26" to-port="1"/>
		<edge from-layer="26" from-port="2" to-layer="28" to-port="1"/>
		<edge from-layer="27" from-port="0" to-layer="28" to-port="2"/>
		<edge from-layer="28" from-port="3" to-layer="29" to-port="1"/>
		<edge from-layer="29" from-port="2" to-layer="31" to-port="0"/>
		<edge from-layer="30" from-port="0" to-layer="31" to-port="1"/>
		<edge from-layer="31" from-port="2" to-layer="33" to-port="0"/>
		<edge from-layer="32" from-port="0" to-layer="33" to-port="1"/>
		<edge from-layer="33" from-port="2" to-layer="34" to-port="0"/>
		<edge from-layer="34" from-port="1" to-layer="36" to-port="0"/>
		<edge from-layer="35" from-port="0" to-layer="36" to-port="1"/>
		<edge from-layer="36" from-port="2" to-layer="38" to-port="0"/>
		<edge from-layer="37" from-port="0" to-layer="38" to-port="1"/>
		<edge from-layer="38" from-port="2" to-layer="40" to-port="0"/>
		<edge from-layer="38" from-port="2" to-layer="46" to-port="0"/>
		<edge from-layer="39" from-port="0" to-layer="45" to-port="0"/>
		<edge from-layer="40" from-port="1" to-layer="41" to-port="0"/>
		<edge from-layer="41" from-port="1" to-layer="43" to-port="0"/>
		<edge from-layer="42" from-port="0" to-layer="43" to-port="1"/>
		<edge from-layer="43" from-port="2" to-layer="45" to-port="1"/>
		<edge from-layer="44" from-port="0" to-layer="45" to-port="2"/>
		<edge from-layer="45" from-port="3" to-layer="46" to-port="1"/>
		<edge from-layer="46" from-port="2" to-layer="48" to-port="0"/>
		<edge from-layer="47" from-port="0" to-layer="48" to-port="1"/>
		<edge from-layer="48" from-port="2" to-layer="50" to-port="0"/>
		<edge from-layer="49" from-port="0" to-layer="50" to-port="1"/>
		<edge from-layer="50" from-port="2" to-layer="51" to-port="0"/>
		<edge from-layer="51" from-port="1" to-layer="53" to-port="0"/>
		<edge from-layer="51" from-port="1" to-layer="69" to-port="0"/>
		<edge from-layer="52" from-port="0" to-layer="53" to-port="1"/>
		<edge from-layer="53" from-port="2" to-layer="55" to-port="0"/>
		<edge from-layer="54" from-port="0" to-layer="55" to-port="1"/>
		<edge from-layer="55" from-port="2" to-layer="57" to-port="0"/>
		<edge from-layer="55" from-port="2" to-layer="63" to-port="0"/>
		<edge from-layer="56" from-port="0" to-layer="62" to-port="0"/>
		<edge from-layer="57" from-port="1" to-layer="58" to-port="0"/>
		<edge from-layer="58" from-port="1" to-layer="60" to-port="0"/>
		<edge from-layer="59" from-port="0" to-layer="60" to-port="1"/>
		<edge from-layer="60" from-port="2" to-layer="62" to-port="1"/>
		<edge from-layer="61" from-port="0" to-layer="62" to-port="2"/>
		<edge from-layer="62" from-port="3" to-layer="63" to-port="1"/>
		<edge from-layer="63" from-port="2" to-layer="65" to-port="0"/>
		<edge from-layer="64" from-port="0" to-layer="65" to-port="1"/>
		<edge from-layer="65" from-port="2" to-layer="67" to-port="0"/>
		<edge from-layer="66" from-port="0" to-layer="67" to-port="1"/>
		<edge from-layer="67" from-port="2" to-layer="68" to-port="0"/>
		<edge from-layer="68" from-port="1" to-layer="69" to-port="1"/>
		<edge from-layer="69" from-port="2" to-layer="70" to-port="0"/>
		<edge from-layer="70" from-port="1" to-layer="72" to-port="0"/>
		<edge from-layer="70" from-port="1" to-layer="88" to-port="0"/>
		<edge from-layer="71" from-port="0" to-layer="72" to-port="1"/>
		<edge from-layer="72" from-port="2" to-layer="74" to-port="0"/>
		<edge from-layer="73" from-port="0" to-layer="74" to-port="1"/>
		<edge from-layer="74" from-port="2" to-layer="76" to-port="0"/>
		<edge from-layer="74" from-port="2" to-layer="82" to-port="0"/>
		<edge from-layer="75" from-port="0" to-layer="81" to-port="0"/>
		<edge from-layer="76" from-port="1" to-layer="77" to-port="0"/>
		<edge from-layer="77" from-port="1" to-layer="79" to-port="0"/>
		<edge from-layer="78" from-port="0" to-layer="79" to-port="1"/>
		<edge from-layer="79" from-port="2" to-layer="81" to-port="1"/>
		<edge from-layer="80" from-port="0" to-layer="81" to-port="2"/>
		<edge from-layer="81" from-port="3" to-layer="82" to-port="1"/>
		<edge from-layer="82" from-port="2" to-layer="84" to-port="0"/>
		<edge from-layer="83" from-port="0" to-layer="84" to-port="1"/>
		<edge from-layer="84" from-port="2" to-layer="86" to-port="0"/>
		<edge from-layer="85" from-port="0" to-layer="86" to-port="1"/>
		<edge from-layer="86" from-port="2" to-layer="87" to-port="0"/>
		<edge from-layer="87" from-port="1" to-layer="88" to-port="1"/>
		<edge from-layer="88" from-port="2" to-layer="89" to-port="0"/>
		<edge from-layer="89" from-port="1" to-layer="91" to-port="0"/>
		<edge from-layer="89" from-port="1" to-layer="107" to-port="0"/>
		<edge from-layer="90" from-port="0" to-layer="91" to-port="1"/>
		<edge from-layer="91" from-port="2" to-layer="93" to-port="0"/>
		<edge from-layer="92" from-port="0" to-layer="93" to-port="1"/>
		<edge from-layer="93" from-port="2" to-layer="95" to-port="0"/>
		<edge from-layer="93" from-port="2" to-layer="101" to-port="0"/>
		<edge from-layer="94" from-port="0" to-layer="100" to-port="0"/>
		<edge from-layer="95" from-port="1" to-layer="96" to-port="0"/>
		<edge from-layer="96" from-port="1" to-layer="98" to-port="0"/>
		<edge from-layer="97" from-port="0" to-layer="98" to-port="1"/>
		<edge from-layer="98" from-port="2" to-layer="100" to-port="1"/>
		<edge from-layer="99" from-port="0" to-layer="100" to-port="2"/>
		<edge from-layer="100" from-port="3" to-layer="101" to-port="1"/>
		<edge from-layer="101" from-port="2" to-layer="103" to-port="0"/>
		<edge from-layer="102" from-port="0" to-layer="103" to-port="1"/>
		<edge from-layer="103" from-port="2" to-layer="105" to-port="0"/>
		<edge from-layer="104" from-port="0" to-layer="105" to-port="1"/>
		<edge from-layer="105" from-port="2" to-layer="106" to-port="0"/>
		<edge from-layer="106" from-port="1" to-layer="107" to-port="1"/>
		<edge from-layer="107" from-port="2" to-layer="108" to-port="0"/>
		<edge from-layer="108" from-port="1" to-layer="110" to-port="0"/>
		<edge from-layer="108" from-port="1" to-layer="126" to-port="0"/>
		<edge from-layer="109" from-port="0" to-layer="110" to-port="1"/>
		<edge from-layer="110" from-port="2" to-layer="112" to-port="0"/>
		<edge from-layer="111" from-port="0" to-layer="112" to-port="1"/>
		<edge from-layer="112" from-port="2" to-layer="114" to-port="0"/>
		<edge from-layer="112" from-port="2" to-layer="120" to-port="0"/>
		<edge from-layer="113" from-port="0" to-layer="119" to-port="0"/>
		<edge from-layer="114" from-port="1" to-layer="115" to-port="0"/>
		<edge from-layer="115" from-port="1" to-layer="117" to-port="0"/>
		<edge from-layer="116" from-port="0" to-layer="117" to-port="1"/>
		<edge from-layer="117" from-port="2" to-layer="119" to-port="1"/>
		<edge from-layer="118" from-port="0" to-layer="119" to-port="2"/>
		<edge from-layer="119" from-port="3" to-layer="120" to-port="1"/>
		<edge from-layer="120" from-port="2" to-layer="122" to-port="0"/>
		<edge from-layer="121" from-port="0" to-layer="122" to-port="1"/>
		<edge from-layer="122" from-port="2" to-layer="124" to-port="0"/>
		<edge from-layer="123" from-port="0" to-layer="124" to-port="1"/>
		<edge from-layer="124" from-port="2" to-layer="125" to-port="0"/>
		<edge from-layer="125" from-port="1" to-layer="126" to-port="1"/>
		<edge from-layer="126" from-port="2" to-layer="127" to-port="0"/>
		<edge from-layer="127" from-port="1" to-layer="128" to-port="0"/>
		<edge from-layer="127" from-port="1" to-layer="142" to-port="0"/>
		<edge from-layer="128" from-port="1" to-layer="129" to-port="0"/>
		<edge from-layer="129" from-port="1" to-layer="131" to-port="0"/>
		<edge from-layer="130" from-port="0" to-layer="131" to-port="1"/>
		<edge from-layer="131" from-port="2" to-layer="133" to-port="0"/>
		<edge from-layer="132" from-port="0" to-layer="133" to-port="1"/>
		<edge from-layer="133" from-port="2" to-layer="134" to-port="0"/>
		<edge from-layer="134" from-port="1" to-layer="135" to-port="0"/>
		<edge from-layer="135" from-port="1" to-layer="139" to-port="0"/>
		<edge from-layer="136" from-port="0" to-layer="139" to-port="1"/>
		<edge from-layer="137" from-port="0" to-layer="139" to-port="2"/>
		<edge from-layer="138" from-port="0" to-layer="139" to-port="3"/>
		<edge from-layer="139" from-port="4" to-layer="142" to-port="1"/>
		<edge from-layer="140" from-port="0" to-layer="142" to-port="2"/>
		<edge from-layer="141" from-port="0" to-layer="142" to-port="3"/>
		<edge from-layer="142" from-port="4" to-layer="144" to-port="0"/>
		<edge from-layer="143" from-port="0" to-layer="144" to-port="1"/>
		<edge from-layer="144" from-port="2" to-layer="146" to-port="0"/>
		<edge from-layer="145" from-port="0" to-layer="146" to-port="1"/>
		<edge from-layer="146" from-port="2" to-layer="148" to-port="0"/>
		<edge from-layer="146" from-port="2" to-layer="154" to-port="0"/>
		<edge from-layer="147" from-port="0" to-layer="153" to-port="0"/>
		<edge from-layer="148" from-port="1" to-layer="149" to-port="0"/>
		<edge from-layer="149" from-port="1" to-layer="151" to-port="0"/>
		<edge from-layer="150" from-port="0" to-layer="151" to-port="1"/>
		<edge from-layer="151" from-port="2" to-layer="153" to-port="1"/>
		<edge from-layer="152" from-port="0" to-layer="153" to-port="2"/>
		<edge from-layer="153" from-port="3" to-layer="154" to-port="1"/>
		<edge from-layer="154" from-port="2" to-layer="156" to-port="0"/>
		<edge from-layer="155" from-port="0" to-layer="156" to-port="1"/>
		<edge from-layer="156" from-port="2" to-layer="158" to-port="0"/>
		<edge from-layer="157" from-port="0" to-layer="158" to-port="1"/>
		<edge from-layer="158" from-port="2" to-layer="159" to-port="0"/>
		<edge from-layer="159" from-port="1" to-layer="160" to-port="0"/>
		<edge from-layer="159" from-port="1" to-layer="174" to-port="0"/>
		<edge from-layer="160" from-port="1" to-layer="161" to-port="0"/>
		<edge from-layer="161" from-port="1" to-layer="163" to-port="0"/>
		<edge from-layer="162" from-port="0" to-layer="163" to-port="1"/>
		<edge from-layer="163" from-port="2" to-layer="165" to-port="0"/>
		<edge from-layer="164" from-port="0" to-layer="165" to-port="1"/>
		<edge from-layer="165" from-port="2" to-layer="166" to-port="0"/>
		<edge from-layer="166" from-port="1" to-layer="167" to-port="0"/>
		<edge from-layer="167" from-port="1" to-layer="171" to-port="0"/>
		<edge from-layer="168" from-port="0" to-layer="171" to-port="1"/>
		<edge from-layer="169" from-port="0" to-layer="171" to-port="2"/>
		<edge from-layer="170" from-port="0" to-layer="171" to-port="3"/>
		<edge from-layer="171" from-port="4" to-layer="174" to-port="1"/>
		<edge from-layer="172" from-port="0" to-layer="174" to-port="2"/>
		<edge from-layer="173" from-port="0" to-layer="174" to-port="3"/>
		<edge from-layer="174" from-port="4" to-layer="176" to-port="0"/>
		<edge from-layer="175" from-port="0" to-layer="176" to-port="1"/>
		<edge from-layer="176" from-port="2" to-layer="178" to-port="0"/>
		<edge from-layer="177" from-port="0" to-layer="178" to-port="1"/>
		<edge from-layer="178" from-port="2" to-layer="180" to-port="0"/>
		<edge from-layer="178" from-port="2" to-layer="186" to-port="0"/>
		<edge from-layer="179" from-port="0" to-layer="185" to-port="0"/>
		<edge from-layer="180" from-port="1" to-layer="181" to-port="0"/>
		<edge from-layer="181" from-port="1" to-layer="183" to-port="0"/>
		<edge from-layer="182" from-port="0" to-layer="183" to-port="1"/>
		<edge from-layer="183" from-port="2" to-layer="185" to-port="1"/>
		<edge from-layer="184" from-port="0" to-layer="185" to-port="2"/>
		<edge from-layer="185" from-port="3" to-layer="186" to-port="1"/>
		<edge from-layer="186" from-port="2" to-layer="188" to-port="0"/>
		<edge from-layer="187" from-port="0" to-layer="188" to-port="1"/>
		<edge from-layer="188" from-port="2" to-layer="190" to-port="0"/>
		<edge from-layer="189" from-port="0" to-layer="190" to-port="1"/>
		<edge from-layer="190" from-port="2" to-layer="191" to-port="0"/>
		<edge from-layer="191" from-port="1" to-layer="193" to-port="0"/>
		<edge from-layer="192" from-port="0" to-layer="193" to-port="1"/>
		<edge from-layer="193" from-port="2" to-layer="195" to-port="0"/>
		<edge from-layer="194" from-port="0" to-layer="195" to-port="1"/>
		<edge from-layer="195" from-port="2" to-layer="196" to-port="0"/>
		<edge from-layer="196" from-port="1" to-layer="197" to-port="0"/>
	</edges>
	<meta_data>
		<MO_version value="2021.4.1-3926-14e67d86634-releases/2021/4"/>
		<cli_parameters>
			<caffe_parser_path value="DIR"/>
			<data_type value="FP16"/>
			<disable_nhwc_to_nchw value="False"/>
			<disable_omitting_optional value="False"/>
			<disable_resnet_optimization value="False"/>
			<disable_weights_compression value="False"/>
			<enable_concat_optimization value="False"/>
			<enable_flattening_nested_params value="False"/>
			<enable_ssd_gluoncv value="False"/>
			<extensions value="DIR"/>
			<framework value="onnx"/>
			<freeze_placeholder_with_value value="{}"/>
			<generate_deprecated_IR_V7 value="False"/>
			<input_model value="DIR\model_manga_lightgrey_nopadding.onnx"/>
			<input_model_is_text value="False"/>
			<input_shape value="[1,3,720,1280]"/>
			<k value="DIR\CustomLayersMapping.xml"/>
			<keep_shape_ops value="True"/>
			<legacy_ir_generation value="False"/>
			<legacy_mxnet_model value="False"/>
			<log_level value="ERROR"/>
			<mean_scale_values value="{}"/>
			<mean_values value="()"/>
			<model_name value="model_manga_lightgrey_nopadding"/>
			<output_dir value="DIR"/>
			<placeholder_data_types value="{}"/>
			<placeholder_shapes value="[   1    3  720 1280]"/>
			<progress value="False"/>
			<remove_memory value="False"/>
			<remove_output_softmax value="False"/>
			<reverse_input_channels value="False"/>
			<save_params_from_nd value="False"/>
			<scale_values value="()"/>
			<silent value="False"/>
			<static_shape value="False"/>
			<stream_output value="False"/>
			<transform value=""/>
			<unset unset_cli_parameters="batch, counts, disable_fusing, disable_gfusing, finegrain_fusing, input, input_checkpoint, input_meta_graph, input_proto, input_symbol, mean_file, mean_file_offsets, move_to_preprocess, nd_prefix_name, output, pretrained_model_name, saved_model_dir, saved_model_tags, scale, tensorboard_logdir, tensorflow_custom_layer_libraries, tensorflow_custom_operations_config_update, tensorflow_object_detection_api_pipeline_config, tensorflow_use_custom_operations_config, transformations_config"/>
		</cli_parameters>
	</meta_data>
</net>
