<?xml version="1.0" ?>
<net name="torch-jit-export" version="11">
	<layers>
		<layer id="0" name="inputImage" type="Parameter" version="opset1">
			<data shape="1,3,720,1280" element_type="f32"/>
			<rt_info>
				<attribute name="fused_names" version="0" value="inputImage"/>
				<attribute name="old_api_map_element_type" version="0" value="f16"/>
			</rt_info>
			<output>
				<port id="0" precision="FP32" names="inputImage">
					<dim>1</dim>
					<dim>3</dim>
					<dim>720</dim>
					<dim>1280</dim>
				</port>
			</output>
		</layer>
		<layer id="1" name="Split_97.0" type="Const" version="opset1">
			<data element_type="i64" shape="4" offset="0" size="32"/>
			<output>
				<port id="0" precision="I64">
					<dim>4</dim>
				</port>
			</output>
		</layer>
		<layer id="2" name="Split_97.1" type="Const" version="opset1">
			<data element_type="i64" shape="4" offset="0" size="32"/>
			<output>
				<port id="0" precision="I64">
					<dim>4</dim>
				</port>
			</output>
		</layer>
		<layer id="3" name="Constant_95_compressed" type="Const" version="opset1">
			<data element_type="f16" shape="" offset="32" size="2"/>
			<output>
				<port id="0" precision="FP16"/>
			</output>
		</layer>
		<layer id="4" name="Constant_95" type="Convert" version="opset1">
			<data destination_type="f32"/>
			<rt_info>
				<attribute name="decompression" version="0"/>
				<attribute name="fused_names" version="0" value="Constant_95"/>
			</rt_info>
			<input>
				<port id="0" precision="FP16"/>
			</input>
			<output>
				<port id="1" precision="FP32"/>
			</output>
		</layer>
		<layer id="5" name="61" type="Pad" version="opset1">
			<data pad_mode="edge"/>
			<rt_info>
				<attribute name="fused_names" version="0" value="61, Split_97"/>
			</rt_info>
			<input>
				<port id="0" precision="FP32">
					<dim>1</dim>
					<dim>3</dim>
					<dim>720</dim>
					<dim>1280</dim>
				</port>
				<port id="1" precision="I64">
					<dim>4</dim>
				</port>
				<port id="2" precision="I64">
					<dim>4</dim>
				</port>
				<port id="3" precision="FP32"/>
			</input>
			<output>
				<port id="4" precision="FP32" names="61">
					<dim>1</dim>
					<dim>3</dim>
					<dim>722</dim>
					<dim>1282</dim>
				</port>
			</output>
		</layer>
		<layer id="6" name="Gather_5218_compressed" type="Const" version="opset1">
			<data element_type="f16" shape="32, 3, 3, 3" offset="34" size="1728"/>
			<output>
				<port id="0" precision="FP16">
					<dim>32</dim>
					<dim>3</dim>
					<dim>3</dim>
					<dim>3</dim>
				</port>
			</output>
		</layer>
		<layer id="7" name="Gather_5218" type="Convert" version="opset1">
			<data destination_type="f32"/>
			<rt_info>
				<attribute name="decompression" version="0"/>
			</rt_info>
			<input>
				<port id="0" precision="FP16">
					<dim>32</dim>
					<dim>3</dim>
					<dim>3</dim>
					<dim>3</dim>
				</port>
			</input>
			<output>
				<port id="1" precision="FP32">
					<dim>32</dim>
					<dim>3</dim>
					<dim>3</dim>
					<dim>3</dim>
				</port>
			</output>
		</layer>
		<layer id="8" name="Convolution_165" type="Convolution" version="opset1">
			<data strides="1, 1" dilations="1, 1" pads_begin="0, 0" pads_end="0, 0" auto_pad="explicit"/>
			<rt_info>
				<attribute name="fused_names" version="0" value="Convolution_165"/>
			</rt_info>
			<input>
				<port id="0" precision="FP32">
					<dim>1</dim>
					<dim>3</dim>
					<dim>722</dim>
					<dim>1282</dim>
				</port>
				<port id="1" precision="FP32">
					<dim>32</dim>
					<dim>3</dim>
					<dim>3</dim>
					<dim>3</dim>
				</port>
			</input>
			<output>
				<port id="2" precision="FP32">
					<dim>1</dim>
					<dim>32</dim>
					<dim>720</dim>
					<dim>1280</dim>
				</port>
			</output>
		</layer>
		<layer id="9" name="Reshape_185_compressed" type="Const" version="opset1">
			<data element_type="f16" shape="1, 32, 1, 1" offset="1762" size="64"/>
			<output>
				<port id="0" precision="FP16">
					<dim>1</dim>
					<dim>32</dim>
					<dim>1</dim>
					<dim>1</dim>
				</port>
			</output>
		</layer>
		<layer id="10" name="Reshape_185" type="Convert" version="opset1">
			<data destination_type="f32"/>
			<rt_info>
				<attribute name="decompression" version="0"/>
			</rt_info>
			<input>
				<port id="0" precision="FP16">
					<dim>1</dim>
					<dim>32</dim>
					<dim>1</dim>
					<dim>1</dim>
				</port>
			</input>
			<output>
				<port id="1" precision="FP32">
					<dim>1</dim>
					<dim>32</dim>
					<dim>1</dim>
					<dim>1</dim>
				</port>
			</output>
		</layer>
		<layer id="11" name="62" type="Add" version="opset1">
			<data auto_broadcast="numpy"/>
			<rt_info>
				<attribute name="fused_names" version="0" value="62, Concat_184, Reshape_185"/>
			</rt_info>
			<input>
				<port id="0" precision="FP32">
					<dim>1</dim>
					<dim>32</dim>
					<dim>720</dim>
					<dim>1280</dim>
				</port>
				<port id="1" precision="FP32">
					<dim>1</dim>
					<dim>32</dim>
					<dim>1</dim>
					<dim>1</dim>
				</port>
			</input>
			<output>
				<port id="2" precision="FP32" names="62">
					<dim>1</dim>
					<dim>32</dim>
					<dim>720</dim>
					<dim>1280</dim>
				</port>
			</output>
		</layer>
		<layer id="12" name="Constant_213" type="Const" version="opset1">
			<data element_type="i64" shape="2" offset="1826" size="16"/>
			<rt_info>
				<attribute name="fused_names" version="0" value="Constant_213"/>
			</rt_info>
			<output>
				<port id="0" precision="I64">
					<dim>2</dim>
				</port>
			</output>
		</layer>
		<layer id="13" name="MVN_214" type="MVN" version="opset6">
			<data eps="9.9999997473787516e-06" normalize_variance="true" eps_mode="INSIDE_SQRT"/>
			<rt_info>
				<attribute name="fused_names" version="0" value="MVN_214"/>
			</rt_info>
			<input>
				<port id="0" precision="FP32">
					<dim>1</dim>
					<dim>32</dim>
					<dim>720</dim>
					<dim>1280</dim>
				</port>
				<port id="1" precision="I64">
					<dim>2</dim>
				</port>
			</input>
			<output>
				<port id="2" precision="FP32">
					<dim>1</dim>
					<dim>32</dim>
					<dim>720</dim>
					<dim>1280</dim>
				</port>
			</output>
		</layer>
		<layer id="14" name="Reshape_234_compressed" type="Const" version="opset1">
			<data element_type="f16" shape="1, 32, 1, 1" offset="1842" size="64"/>
			<output>
				<port id="0" precision="FP16">
					<dim>1</dim>
					<dim>32</dim>
					<dim>1</dim>
					<dim>1</dim>
				</port>
			</output>
		</layer>
		<layer id="15" name="Reshape_234" type="Convert" version="opset1">
			<data destination_type="f32"/>
			<rt_info>
				<attribute name="decompression" version="0"/>
			</rt_info>
			<input>
				<port id="0" precision="FP16">
					<dim>1</dim>
					<dim>32</dim>
					<dim>1</dim>
					<dim>1</dim>
				</port>
			</input>
			<output>
				<port id="1" precision="FP32">
					<dim>1</dim>
					<dim>32</dim>
					<dim>1</dim>
					<dim>1</dim>
				</port>
			</output>
		</layer>
		<layer id="16" name="Multiply_261" type="Multiply" version="opset1">
			<data auto_broadcast="numpy"/>
			<rt_info>
				<attribute name="fused_names" version="0" value="Concat_233, Multiply_261, Reshape_234"/>
			</rt_info>
			<input>
				<port id="0" precision="FP32">
					<dim>1</dim>
					<dim>32</dim>
					<dim>720</dim>
					<dim>1280</dim>
				</port>
				<port id="1" precision="FP32">
					<dim>1</dim>
					<dim>32</dim>
					<dim>1</dim>
					<dim>1</dim>
				</port>
			</input>
			<output>
				<port id="2" precision="FP32">
					<dim>1</dim>
					<dim>32</dim>
					<dim>720</dim>
					<dim>1280</dim>
				</port>
			</output>
		</layer>
		<layer id="17" name="Reshape_279_compressed" type="Const" version="opset1">
			<data element_type="f16" shape="1, 32, 1, 1" offset="1906" size="64"/>
			<output>
				<port id="0" precision="FP16">
					<dim>1</dim>
					<dim>32</dim>
					<dim>1</dim>
					<dim>1</dim>
				</port>
			</output>
		</layer>
		<layer id="18" name="Reshape_279" type="Convert" version="opset1">
			<data destination_type="f32"/>
			<rt_info>
				<attribute name="decompression" version="0"/>
			</rt_info>
			<input>
				<port id="0" precision="FP16">
					<dim>1</dim>
					<dim>32</dim>
					<dim>1</dim>
					<dim>1</dim>
				</port>
			</input>
			<output>
				<port id="1" precision="FP32">
					<dim>1</dim>
					<dim>32</dim>
					<dim>1</dim>
					<dim>1</dim>
				</port>
			</output>
		</layer>
		<layer id="19" name="63" type="Add" version="opset1">
			<data auto_broadcast="numpy"/>
			<rt_info>
				<attribute name="fused_names" version="0" value="63, Concat_278, Reshape_279"/>
			</rt_info>
			<input>
				<port id="0" precision="FP32">
					<dim>1</dim>
					<dim>32</dim>
					<dim>720</dim>
					<dim>1280</dim>
				</port>
				<port id="1" precision="FP32">
					<dim>1</dim>
					<dim>32</dim>
					<dim>1</dim>
					<dim>1</dim>
				</port>
			</input>
			<output>
				<port id="2" precision="FP32" names="63">
					<dim>1</dim>
					<dim>32</dim>
					<dim>720</dim>
					<dim>1280</dim>
				</port>
			</output>
		</layer>
		<layer id="20" name="64" type="ReLU" version="opset1">
			<rt_info>
				<attribute name="fused_names" version="0" value="64"/>
			</rt_info>
			<input>
				<port id="0" precision="FP32">
					<dim>1</dim>
					<dim>32</dim>
					<dim>720</dim>
					<dim>1280</dim>
				</port>
			</input>
			<output>
				<port id="1" precision="FP32" names="64">
					<dim>1</dim>
					<dim>32</dim>
					<dim>720</dim>
					<dim>1280</dim>
				</port>
			</output>
		</layer>
		<layer id="21" name="Split_341.0" type="Const" version="opset1">
			<data element_type="i64" shape="4" offset="0" size="32"/>
			<output>
				<port id="0" precision="I64">
					<dim>4</dim>
				</port>
			</output>
		</layer>
		<layer id="22" name="Split_341.1" type="Const" version="opset1">
			<data element_type="i64" shape="4" offset="0" size="32"/>
			<output>
				<port id="0" precision="I64">
					<dim>4</dim>
				</port>
			</output>
		</layer>
		<layer id="23" name="Constant_339_compressed" type="Const" version="opset1">
			<data element_type="f16" shape="" offset="32" size="2"/>
			<output>
				<port id="0" precision="FP16"/>
			</output>
		</layer>
		<layer id="24" name="Constant_339" type="Convert" version="opset1">
			<data destination_type="f32"/>
			<rt_info>
				<attribute name="decompression" version="0"/>
				<attribute name="fused_names" version="0" value="Constant_339"/>
			</rt_info>
			<input>
				<port id="0" precision="FP16"/>
			</input>
			<output>
				<port id="1" precision="FP32"/>
			</output>
		</layer>
		<layer id="25" name="87" type="Pad" version="opset1">
			<data pad_mode="edge"/>
			<rt_info>
				<attribute name="fused_names" version="0" value="87, Split_341"/>
			</rt_info>
			<input>
				<port id="0" precision="FP32">
					<dim>1</dim>
					<dim>32</dim>
					<dim>720</dim>
					<dim>1280</dim>
				</port>
				<port id="1" precision="I64">
					<dim>4</dim>
				</port>
				<port id="2" precision="I64">
					<dim>4</dim>
				</port>
				<port id="3" precision="FP32"/>
			</input>
			<output>
				<port id="4" precision="FP32" names="87">
					<dim>1</dim>
					<dim>32</dim>
					<dim>722</dim>
					<dim>1282</dim>
				</port>
			</output>
		</layer>
		<layer id="26" name="encoder.layers.1.layers.0.layers.1.weight_compressed" type="Const" version="opset1">
			<data element_type="f16" shape="64, 32, 3, 3" offset="1970" size="36864"/>
			<output>
				<port id="0" precision="FP16">
					<dim>64</dim>
					<dim>32</dim>
					<dim>3</dim>
					<dim>3</dim>
				</port>
			</output>
		</layer>
		<layer id="27" name="encoder.layers.1.layers.0.layers.1.weight" type="Convert" version="opset1">
			<data destination_type="f32"/>
			<rt_info>
				<attribute name="decompression" version="0"/>
				<attribute name="fused_names" version="0" value="encoder.layers.1.layers.0.layers.1.weight"/>
			</rt_info>
			<input>
				<port id="0" precision="FP16">
					<dim>64</dim>
					<dim>32</dim>
					<dim>3</dim>
					<dim>3</dim>
				</port>
			</input>
			<output>
				<port id="1" precision="FP32" names="encoder.layers.1.layers.0.layers.1.weight">
					<dim>64</dim>
					<dim>32</dim>
					<dim>3</dim>
					<dim>3</dim>
				</port>
			</output>
		</layer>
		<layer id="28" name="Convolution_409" type="Convolution" version="opset1">
			<data strides="2, 2" dilations="1, 1" pads_begin="0, 0" pads_end="0, 0" auto_pad="explicit"/>
			<rt_info>
				<attribute name="fused_names" version="0" value="Convolution_409"/>
			</rt_info>
			<input>
				<port id="0" precision="FP32">
					<dim>1</dim>
					<dim>32</dim>
					<dim>722</dim>
					<dim>1282</dim>
				</port>
				<port id="1" precision="FP32">
					<dim>64</dim>
					<dim>32</dim>
					<dim>3</dim>
					<dim>3</dim>
				</port>
			</input>
			<output>
				<port id="2" precision="FP32">
					<dim>1</dim>
					<dim>64</dim>
					<dim>360</dim>
					<dim>640</dim>
				</port>
			</output>
		</layer>
		<layer id="29" name="Reshape_429_compressed" type="Const" version="opset1">
			<data element_type="f16" shape="1, 64, 1, 1" offset="38834" size="128"/>
			<output>
				<port id="0" precision="FP16">
					<dim>1</dim>
					<dim>64</dim>
					<dim>1</dim>
					<dim>1</dim>
				</port>
			</output>
		</layer>
		<layer id="30" name="Reshape_429" type="Convert" version="opset1">
			<data destination_type="f32"/>
			<rt_info>
				<attribute name="decompression" version="0"/>
			</rt_info>
			<input>
				<port id="0" precision="FP16">
					<dim>1</dim>
					<dim>64</dim>
					<dim>1</dim>
					<dim>1</dim>
				</port>
			</input>
			<output>
				<port id="1" precision="FP32">
					<dim>1</dim>
					<dim>64</dim>
					<dim>1</dim>
					<dim>1</dim>
				</port>
			</output>
		</layer>
		<layer id="31" name="88" type="Add" version="opset1">
			<data auto_broadcast="numpy"/>
			<rt_info>
				<attribute name="fused_names" version="0" value="88, Concat_428, Reshape_429"/>
			</rt_info>
			<input>
				<port id="0" precision="FP32">
					<dim>1</dim>
					<dim>64</dim>
					<dim>360</dim>
					<dim>640</dim>
				</port>
				<port id="1" precision="FP32">
					<dim>1</dim>
					<dim>64</dim>
					<dim>1</dim>
					<dim>1</dim>
				</port>
			</input>
			<output>
				<port id="2" precision="FP32" names="88">
					<dim>1</dim>
					<dim>64</dim>
					<dim>360</dim>
					<dim>640</dim>
				</port>
			</output>
		</layer>
		<layer id="32" name="Constant_457" type="Const" version="opset1">
			<data element_type="i64" shape="2" offset="1826" size="16"/>
			<rt_info>
				<attribute name="fused_names" version="0" value="Constant_457"/>
			</rt_info>
			<output>
				<port id="0" precision="I64">
					<dim>2</dim>
				</port>
			</output>
		</layer>
		<layer id="33" name="MVN_458" type="MVN" version="opset6">
			<data eps="9.9999997473787516e-06" normalize_variance="true" eps_mode="INSIDE_SQRT"/>
			<rt_info>
				<attribute name="fused_names" version="0" value="MVN_458"/>
			</rt_info>
			<input>
				<port id="0" precision="FP32">
					<dim>1</dim>
					<dim>64</dim>
					<dim>360</dim>
					<dim>640</dim>
				</port>
				<port id="1" precision="I64">
					<dim>2</dim>
				</port>
			</input>
			<output>
				<port id="2" precision="FP32">
					<dim>1</dim>
					<dim>64</dim>
					<dim>360</dim>
					<dim>640</dim>
				</port>
			</output>
		</layer>
		<layer id="34" name="Reshape_478_compressed" type="Const" version="opset1">
			<data element_type="f16" shape="1, 64, 1, 1" offset="38962" size="128"/>
			<output>
				<port id="0" precision="FP16">
					<dim>1</dim>
					<dim>64</dim>
					<dim>1</dim>
					<dim>1</dim>
				</port>
			</output>
		</layer>
		<layer id="35" name="Reshape_478" type="Convert" version="opset1">
			<data destination_type="f32"/>
			<rt_info>
				<attribute name="decompression" version="0"/>
			</rt_info>
			<input>
				<port id="0" precision="FP16">
					<dim>1</dim>
					<dim>64</dim>
					<dim>1</dim>
					<dim>1</dim>
				</port>
			</input>
			<output>
				<port id="1" precision="FP32">
					<dim>1</dim>
					<dim>64</dim>
					<dim>1</dim>
					<dim>1</dim>
				</port>
			</output>
		</layer>
		<layer id="36" name="Multiply_505" type="Multiply" version="opset1">
			<data auto_broadcast="numpy"/>
			<rt_info>
				<attribute name="fused_names" version="0" value="Concat_477, Multiply_505, Reshape_478"/>
			</rt_info>
			<input>
				<port id="0" precision="FP32">
					<dim>1</dim>
					<dim>64</dim>
					<dim>360</dim>
					<dim>640</dim>
				</port>
				<port id="1" precision="FP32">
					<dim>1</dim>
					<dim>64</dim>
					<dim>1</dim>
					<dim>1</dim>
				</port>
			</input>
			<output>
				<port id="2" precision="FP32">
					<dim>1</dim>
					<dim>64</dim>
					<dim>360</dim>
					<dim>640</dim>
				</port>
			</output>
		</layer>
		<layer id="37" name="Reshape_523_compressed" type="Const" version="opset1">
			<data element_type="f16" shape="1, 64, 1, 1" offset="39090" size="128"/>
			<output>
				<port id="0" precision="FP16">
					<dim>1</dim>
					<dim>64</dim>
					<dim>1</dim>
					<dim>1</dim>
				</port>
			</output>
		</layer>
		<layer id="38" name="Reshape_523" type="Convert" version="opset1">
			<data destination_type="f32"/>
			<rt_info>
				<attribute name="decompression" version="0"/>
			</rt_info>
			<input>
				<port id="0" precision="FP16">
					<dim>1</dim>
					<dim>64</dim>
					<dim>1</dim>
					<dim>1</dim>
				</port>
			</input>
			<output>
				<port id="1" precision="FP32">
					<dim>1</dim>
					<dim>64</dim>
					<dim>1</dim>
					<dim>1</dim>
				</port>
			</output>
		</layer>
		<layer id="39" name="89" type="Add" version="opset1">
			<data auto_broadcast="numpy"/>
			<rt_info>
				<attribute name="fused_names" version="0" value="89, Concat_522, Reshape_523"/>
			</rt_info>
			<input>
				<port id="0" precision="FP32">
					<dim>1</dim>
					<dim>64</dim>
					<dim>360</dim>
					<dim>640</dim>
				</port>
				<port id="1" precision="FP32">
					<dim>1</dim>
					<dim>64</dim>
					<dim>1</dim>
					<dim>1</dim>
				</port>
			</input>
			<output>
				<port id="2" precision="FP32" names="89">
					<dim>1</dim>
					<dim>64</dim>
					<dim>360</dim>
					<dim>640</dim>
				</port>
			</output>
		</layer>
		<layer id="40" name="90" type="ReLU" version="opset1">
			<rt_info>
				<attribute name="fused_names" version="0" value="90"/>
			</rt_info>
			<input>
				<port id="0" precision="FP32">
					<dim>1</dim>
					<dim>64</dim>
					<dim>360</dim>
					<dim>640</dim>
				</port>
			</input>
			<output>
				<port id="1" precision="FP32" names="90">
					<dim>1</dim>
					<dim>64</dim>
					<dim>360</dim>
					<dim>640</dim>
				</port>
			</output>
		</layer>
		<layer id="41" name="Split_585.0" type="Const" version="opset1">
			<data element_type="i64" shape="4" offset="0" size="32"/>
			<output>
				<port id="0" precision="I64">
					<dim>4</dim>
				</port>
			</output>
		</layer>
		<layer id="42" name="Split_585.1" type="Const" version="opset1">
			<data element_type="i64" shape="4" offset="0" size="32"/>
			<output>
				<port id="0" precision="I64">
					<dim>4</dim>
				</port>
			</output>
		</layer>
		<layer id="43" name="Constant_583_compressed" type="Const" version="opset1">
			<data element_type="f16" shape="" offset="32" size="2"/>
			<output>
				<port id="0" precision="FP16"/>
			</output>
		</layer>
		<layer id="44" name="Constant_583" type="Convert" version="opset1">
			<data destination_type="f32"/>
			<rt_info>
				<attribute name="decompression" version="0"/>
				<attribute name="fused_names" version="0" value="Constant_583"/>
			</rt_info>
			<input>
				<port id="0" precision="FP16"/>
			</input>
			<output>
				<port id="1" precision="FP32"/>
			</output>
		</layer>
		<layer id="45" name="113" type="Pad" version="opset1">
			<data pad_mode="edge"/>
			<rt_info>
				<attribute name="fused_names" version="0" value="113, Split_585"/>
			</rt_info>
			<input>
				<port id="0" precision="FP32">
					<dim>1</dim>
					<dim>64</dim>
					<dim>360</dim>
					<dim>640</dim>
				</port>
				<port id="1" precision="I64">
					<dim>4</dim>
				</port>
				<port id="2" precision="I64">
					<dim>4</dim>
				</port>
				<port id="3" precision="FP32"/>
			</input>
			<output>
				<port id="4" precision="FP32" names="113">
					<dim>1</dim>
					<dim>64</dim>
					<dim>362</dim>
					<dim>642</dim>
				</port>
			</output>
		</layer>
		<layer id="46" name="encoder.layers.2.layers.0.layers.1.weight_compressed" type="Const" version="opset1">
			<data element_type="f16" shape="128, 64, 3, 3" offset="39218" size="147456"/>
			<output>
				<port id="0" precision="FP16">
					<dim>128</dim>
					<dim>64</dim>
					<dim>3</dim>
					<dim>3</dim>
				</port>
			</output>
		</layer>
		<layer id="47" name="encoder.layers.2.layers.0.layers.1.weight" type="Convert" version="opset1">
			<data destination_type="f32"/>
			<rt_info>
				<attribute name="decompression" version="0"/>
				<attribute name="fused_names" version="0" value="encoder.layers.2.layers.0.layers.1.weight"/>
			</rt_info>
			<input>
				<port id="0" precision="FP16">
					<dim>128</dim>
					<dim>64</dim>
					<dim>3</dim>
					<dim>3</dim>
				</port>
			</input>
			<output>
				<port id="1" precision="FP32" names="encoder.layers.2.layers.0.layers.1.weight">
					<dim>128</dim>
					<dim>64</dim>
					<dim>3</dim>
					<dim>3</dim>
				</port>
			</output>
		</layer>
		<layer id="48" name="Convolution_653" type="Convolution" version="opset1">
			<data strides="2, 2" dilations="1, 1" pads_begin="0, 0" pads_end="0, 0" auto_pad="explicit"/>
			<rt_info>
				<attribute name="fused_names" version="0" value="Convolution_653"/>
			</rt_info>
			<input>
				<port id="0" precision="FP32">
					<dim>1</dim>
					<dim>64</dim>
					<dim>362</dim>
					<dim>642</dim>
				</port>
				<port id="1" precision="FP32">
					<dim>128</dim>
					<dim>64</dim>
					<dim>3</dim>
					<dim>3</dim>
				</port>
			</input>
			<output>
				<port id="2" precision="FP32">
					<dim>1</dim>
					<dim>128</dim>
					<dim>180</dim>
					<dim>320</dim>
				</port>
			</output>
		</layer>
		<layer id="49" name="Reshape_673_compressed" type="Const" version="opset1">
			<data element_type="f16" shape="1, 128, 1, 1" offset="186674" size="256"/>
			<output>
				<port id="0" precision="FP16">
					<dim>1</dim>
					<dim>128</dim>
					<dim>1</dim>
					<dim>1</dim>
				</port>
			</output>
		</layer>
		<layer id="50" name="Reshape_673" type="Convert" version="opset1">
			<data destination_type="f32"/>
			<rt_info>
				<attribute name="decompression" version="0"/>
			</rt_info>
			<input>
				<port id="0" precision="FP16">
					<dim>1</dim>
					<dim>128</dim>
					<dim>1</dim>
					<dim>1</dim>
				</port>
			</input>
			<output>
				<port id="1" precision="FP32">
					<dim>1</dim>
					<dim>128</dim>
					<dim>1</dim>
					<dim>1</dim>
				</port>
			</output>
		</layer>
		<layer id="51" name="114" type="Add" version="opset1">
			<data auto_broadcast="numpy"/>
			<rt_info>
				<attribute name="fused_names" version="0" value="114, Concat_672, Reshape_673"/>
			</rt_info>
			<input>
				<port id="0" precision="FP32">
					<dim>1</dim>
					<dim>128</dim>
					<dim>180</dim>
					<dim>320</dim>
				</port>
				<port id="1" precision="FP32">
					<dim>1</dim>
					<dim>128</dim>
					<dim>1</dim>
					<dim>1</dim>
				</port>
			</input>
			<output>
				<port id="2" precision="FP32" names="114">
					<dim>1</dim>
					<dim>128</dim>
					<dim>180</dim>
					<dim>320</dim>
				</port>
			</output>
		</layer>
		<layer id="52" name="Constant_701" type="Const" version="opset1">
			<data element_type="i64" shape="2" offset="1826" size="16"/>
			<rt_info>
				<attribute name="fused_names" version="0" value="Constant_701"/>
			</rt_info>
			<output>
				<port id="0" precision="I64">
					<dim>2</dim>
				</port>
			</output>
		</layer>
		<layer id="53" name="MVN_702" type="MVN" version="opset6">
			<data eps="9.9999997473787516e-06" normalize_variance="true" eps_mode="INSIDE_SQRT"/>
			<rt_info>
				<attribute name="fused_names" version="0" value="MVN_702"/>
			</rt_info>
			<input>
				<port id="0" precision="FP32">
					<dim>1</dim>
					<dim>128</dim>
					<dim>180</dim>
					<dim>320</dim>
				</port>
				<port id="1" precision="I64">
					<dim>2</dim>
				</port>
			</input>
			<output>
				<port id="2" precision="FP32">
					<dim>1</dim>
					<dim>128</dim>
					<dim>180</dim>
					<dim>320</dim>
				</port>
			</output>
		</layer>
		<layer id="54" name="Reshape_722_compressed" type="Const" version="opset1">
			<data element_type="f16" shape="1, 128, 1, 1" offset="186930" size="256"/>
			<output>
				<port id="0" precision="FP16">
					<dim>1</dim>
					<dim>128</dim>
					<dim>1</dim>
					<dim>1</dim>
				</port>
			</output>
		</layer>
		<layer id="55" name="Reshape_722" type="Convert" version="opset1">
			<data destination_type="f32"/>
			<rt_info>
				<attribute name="decompression" version="0"/>
			</rt_info>
			<input>
				<port id="0" precision="FP16">
					<dim>1</dim>
					<dim>128</dim>
					<dim>1</dim>
					<dim>1</dim>
				</port>
			</input>
			<output>
				<port id="1" precision="FP32">
					<dim>1</dim>
					<dim>128</dim>
					<dim>1</dim>
					<dim>1</dim>
				</port>
			</output>
		</layer>
		<layer id="56" name="Multiply_749" type="Multiply" version="opset1">
			<data auto_broadcast="numpy"/>
			<rt_info>
				<attribute name="fused_names" version="0" value="Concat_721, Multiply_749, Reshape_722"/>
			</rt_info>
			<input>
				<port id="0" precision="FP32">
					<dim>1</dim>
					<dim>128</dim>
					<dim>180</dim>
					<dim>320</dim>
				</port>
				<port id="1" precision="FP32">
					<dim>1</dim>
					<dim>128</dim>
					<dim>1</dim>
					<dim>1</dim>
				</port>
			</input>
			<output>
				<port id="2" precision="FP32">
					<dim>1</dim>
					<dim>128</dim>
					<dim>180</dim>
					<dim>320</dim>
				</port>
			</output>
		</layer>
		<layer id="57" name="Reshape_767_compressed" type="Const" version="opset1">
			<data element_type="f16" shape="1, 128, 1, 1" offset="187186" size="256"/>
			<output>
				<port id="0" precision="FP16">
					<dim>1</dim>
					<dim>128</dim>
					<dim>1</dim>
					<dim>1</dim>
				</port>
			</output>
		</layer>
		<layer id="58" name="Reshape_767" type="Convert" version="opset1">
			<data destination_type="f32"/>
			<rt_info>
				<attribute name="decompression" version="0"/>
			</rt_info>
			<input>
				<port id="0" precision="FP16">
					<dim>1</dim>
					<dim>128</dim>
					<dim>1</dim>
					<dim>1</dim>
				</port>
			</input>
			<output>
				<port id="1" precision="FP32">
					<dim>1</dim>
					<dim>128</dim>
					<dim>1</dim>
					<dim>1</dim>
				</port>
			</output>
		</layer>
		<layer id="59" name="115" type="Add" version="opset1">
			<data auto_broadcast="numpy"/>
			<rt_info>
				<attribute name="fused_names" version="0" value="115, Concat_766, Reshape_767"/>
			</rt_info>
			<input>
				<port id="0" precision="FP32">
					<dim>1</dim>
					<dim>128</dim>
					<dim>180</dim>
					<dim>320</dim>
				</port>
				<port id="1" precision="FP32">
					<dim>1</dim>
					<dim>128</dim>
					<dim>1</dim>
					<dim>1</dim>
				</port>
			</input>
			<output>
				<port id="2" precision="FP32" names="115">
					<dim>1</dim>
					<dim>128</dim>
					<dim>180</dim>
					<dim>320</dim>
				</port>
			</output>
		</layer>
		<layer id="60" name="116" type="ReLU" version="opset1">
			<rt_info>
				<attribute name="fused_names" version="0" value="116"/>
			</rt_info>
			<input>
				<port id="0" precision="FP32">
					<dim>1</dim>
					<dim>128</dim>
					<dim>180</dim>
					<dim>320</dim>
				</port>
			</input>
			<output>
				<port id="1" precision="FP32" names="116">
					<dim>1</dim>
					<dim>128</dim>
					<dim>180</dim>
					<dim>320</dim>
				</port>
			</output>
		</layer>
		<layer id="61" name="Split_829.0" type="Const" version="opset1">
			<data element_type="i64" shape="4" offset="0" size="32"/>
			<output>
				<port id="0" precision="I64">
					<dim>4</dim>
				</port>
			</output>
		</layer>
		<layer id="62" name="Split_829.1" type="Const" version="opset1">
			<data element_type="i64" shape="4" offset="0" size="32"/>
			<output>
				<port id="0" precision="I64">
					<dim>4</dim>
				</port>
			</output>
		</layer>
		<layer id="63" name="Constant_827_compressed" type="Const" version="opset1">
			<data element_type="f16" shape="" offset="32" size="2"/>
			<output>
				<port id="0" precision="FP16"/>
			</output>
		</layer>
		<layer id="64" name="Constant_827" type="Convert" version="opset1">
			<data destination_type="f32"/>
			<rt_info>
				<attribute name="decompression" version="0"/>
				<attribute name="fused_names" version="0" value="Constant_827"/>
			</rt_info>
			<input>
				<port id="0" precision="FP16"/>
			</input>
			<output>
				<port id="1" precision="FP32"/>
			</output>
		</layer>
		<layer id="65" name="139" type="Pad" version="opset1">
			<data pad_mode="edge"/>
			<rt_info>
				<attribute name="fused_names" version="0" value="139, Split_829"/>
			</rt_info>
			<input>
				<port id="0" precision="FP32">
					<dim>1</dim>
					<dim>128</dim>
					<dim>180</dim>
					<dim>320</dim>
				</port>
				<port id="1" precision="I64">
					<dim>4</dim>
				</port>
				<port id="2" precision="I64">
					<dim>4</dim>
				</port>
				<port id="3" precision="FP32"/>
			</input>
			<output>
				<port id="4" precision="FP32" names="139">
					<dim>1</dim>
					<dim>128</dim>
					<dim>182</dim>
					<dim>322</dim>
				</port>
			</output>
		</layer>
		<layer id="66" name="encoder.layers.3.branch.0.layers.0.layers.1.weight_compressed" type="Const" version="opset1">
			<data element_type="f16" shape="128, 128, 3, 3" offset="187442" size="294912"/>
			<output>
				<port id="0" precision="FP16">
					<dim>128</dim>
					<dim>128</dim>
					<dim>3</dim>
					<dim>3</dim>
				</port>
			</output>
		</layer>
		<layer id="67" name="encoder.layers.3.branch.0.layers.0.layers.1.weight" type="Convert" version="opset1">
			<data destination_type="f32"/>
			<rt_info>
				<attribute name="decompression" version="0"/>
				<attribute name="fused_names" version="0" value="encoder.layers.3.branch.0.layers.0.layers.1.weight"/>
			</rt_info>
			<input>
				<port id="0" precision="FP16">
					<dim>128</dim>
					<dim>128</dim>
					<dim>3</dim>
					<dim>3</dim>
				</port>
			</input>
			<output>
				<port id="1" precision="FP32" names="encoder.layers.3.branch.0.layers.0.layers.1.weight">
					<dim>128</dim>
					<dim>128</dim>
					<dim>3</dim>
					<dim>3</dim>
				</port>
			</output>
		</layer>
		<layer id="68" name="Convolution_897" type="Convolution" version="opset1">
			<data strides="1, 1" dilations="1, 1" pads_begin="0, 0" pads_end="0, 0" auto_pad="explicit"/>
			<rt_info>
				<attribute name="fused_names" version="0" value="Convolution_897"/>
			</rt_info>
			<input>
				<port id="0" precision="FP32">
					<dim>1</dim>
					<dim>128</dim>
					<dim>182</dim>
					<dim>322</dim>
				</port>
				<port id="1" precision="FP32">
					<dim>128</dim>
					<dim>128</dim>
					<dim>3</dim>
					<dim>3</dim>
				</port>
			</input>
			<output>
				<port id="2" precision="FP32">
					<dim>1</dim>
					<dim>128</dim>
					<dim>180</dim>
					<dim>320</dim>
				</port>
			</output>
		</layer>
		<layer id="69" name="Reshape_917_compressed" type="Const" version="opset1">
			<data element_type="f16" shape="1, 128, 1, 1" offset="482354" size="256"/>
			<output>
				<port id="0" precision="FP16">
					<dim>1</dim>
					<dim>128</dim>
					<dim>1</dim>
					<dim>1</dim>
				</port>
			</output>
		</layer>
		<layer id="70" name="Reshape_917" type="Convert" version="opset1">
			<data destination_type="f32"/>
			<rt_info>
				<attribute name="decompression" version="0"/>
			</rt_info>
			<input>
				<port id="0" precision="FP16">
					<dim>1</dim>
					<dim>128</dim>
					<dim>1</dim>
					<dim>1</dim>
				</port>
			</input>
			<output>
				<port id="1" precision="FP32">
					<dim>1</dim>
					<dim>128</dim>
					<dim>1</dim>
					<dim>1</dim>
				</port>
			</output>
		</layer>
		<layer id="71" name="140" type="Add" version="opset1">
			<data auto_broadcast="numpy"/>
			<rt_info>
				<attribute name="fused_names" version="0" value="140, Concat_916, Reshape_917"/>
			</rt_info>
			<input>
				<port id="0" precision="FP32">
					<dim>1</dim>
					<dim>128</dim>
					<dim>180</dim>
					<dim>320</dim>
				</port>
				<port id="1" precision="FP32">
					<dim>1</dim>
					<dim>128</dim>
					<dim>1</dim>
					<dim>1</dim>
				</port>
			</input>
			<output>
				<port id="2" precision="FP32" names="140">
					<dim>1</dim>
					<dim>128</dim>
					<dim>180</dim>
					<dim>320</dim>
				</port>
			</output>
		</layer>
		<layer id="72" name="Constant_945" type="Const" version="opset1">
			<data element_type="i64" shape="2" offset="1826" size="16"/>
			<rt_info>
				<attribute name="fused_names" version="0" value="Constant_945"/>
			</rt_info>
			<output>
				<port id="0" precision="I64">
					<dim>2</dim>
				</port>
			</output>
		</layer>
		<layer id="73" name="MVN_946" type="MVN" version="opset6">
			<data eps="9.9999997473787516e-06" normalize_variance="true" eps_mode="INSIDE_SQRT"/>
			<rt_info>
				<attribute name="fused_names" version="0" value="MVN_946"/>
			</rt_info>
			<input>
				<port id="0" precision="FP32">
					<dim>1</dim>
					<dim>128</dim>
					<dim>180</dim>
					<dim>320</dim>
				</port>
				<port id="1" precision="I64">
					<dim>2</dim>
				</port>
			</input>
			<output>
				<port id="2" precision="FP32">
					<dim>1</dim>
					<dim>128</dim>
					<dim>180</dim>
					<dim>320</dim>
				</port>
			</output>
		</layer>
		<layer id="74" name="Reshape_966_compressed" type="Const" version="opset1">
			<data element_type="f16" shape="1, 128, 1, 1" offset="482610" size="256"/>
			<output>
				<port id="0" precision="FP16">
					<dim>1</dim>
					<dim>128</dim>
					<dim>1</dim>
					<dim>1</dim>
				</port>
			</output>
		</layer>
		<layer id="75" name="Reshape_966" type="Convert" version="opset1">
			<data destination_type="f32"/>
			<rt_info>
				<attribute name="decompression" version="0"/>
			</rt_info>
			<input>
				<port id="0" precision="FP16">
					<dim>1</dim>
					<dim>128</dim>
					<dim>1</dim>
					<dim>1</dim>
				</port>
			</input>
			<output>
				<port id="1" precision="FP32">
					<dim>1</dim>
					<dim>128</dim>
					<dim>1</dim>
					<dim>1</dim>
				</port>
			</output>
		</layer>
		<layer id="76" name="Multiply_993" type="Multiply" version="opset1">
			<data auto_broadcast="numpy"/>
			<rt_info>
				<attribute name="fused_names" version="0" value="Concat_965, Multiply_993, Reshape_966"/>
			</rt_info>
			<input>
				<port id="0" precision="FP32">
					<dim>1</dim>
					<dim>128</dim>
					<dim>180</dim>
					<dim>320</dim>
				</port>
				<port id="1" precision="FP32">
					<dim>1</dim>
					<dim>128</dim>
					<dim>1</dim>
					<dim>1</dim>
				</port>
			</input>
			<output>
				<port id="2" precision="FP32">
					<dim>1</dim>
					<dim>128</dim>
					<dim>180</dim>
					<dim>320</dim>
				</port>
			</output>
		</layer>
		<layer id="77" name="Reshape_1011_compressed" type="Const" version="opset1">
			<data element_type="f16" shape="1, 128, 1, 1" offset="482866" size="256"/>
			<output>
				<port id="0" precision="FP16">
					<dim>1</dim>
					<dim>128</dim>
					<dim>1</dim>
					<dim>1</dim>
				</port>
			</output>
		</layer>
		<layer id="78" name="Reshape_1011" type="Convert" version="opset1">
			<data destination_type="f32"/>
			<rt_info>
				<attribute name="decompression" version="0"/>
			</rt_info>
			<input>
				<port id="0" precision="FP16">
					<dim>1</dim>
					<dim>128</dim>
					<dim>1</dim>
					<dim>1</dim>
				</port>
			</input>
			<output>
				<port id="1" precision="FP32">
					<dim>1</dim>
					<dim>128</dim>
					<dim>1</dim>
					<dim>1</dim>
				</port>
			</output>
		</layer>
		<layer id="79" name="141" type="Add" version="opset1">
			<data auto_broadcast="numpy"/>
			<rt_info>
				<attribute name="fused_names" version="0" value="141, Concat_1010, Reshape_1011"/>
			</rt_info>
			<input>
				<port id="0" precision="FP32">
					<dim>1</dim>
					<dim>128</dim>
					<dim>180</dim>
					<dim>320</dim>
				</port>
				<port id="1" precision="FP32">
					<dim>1</dim>
					<dim>128</dim>
					<dim>1</dim>
					<dim>1</dim>
				</port>
			</input>
			<output>
				<port id="2" precision="FP32" names="141">
					<dim>1</dim>
					<dim>128</dim>
					<dim>180</dim>
					<dim>320</dim>
				</port>
			</output>
		</layer>
		<layer id="80" name="142" type="ReLU" version="opset1">
			<rt_info>
				<attribute name="fused_names" version="0" value="142"/>
			</rt_info>
			<input>
				<port id="0" precision="FP32">
					<dim>1</dim>
					<dim>128</dim>
					<dim>180</dim>
					<dim>320</dim>
				</port>
			</input>
			<output>
				<port id="1" precision="FP32" names="142">
					<dim>1</dim>
					<dim>128</dim>
					<dim>180</dim>
					<dim>320</dim>
				</port>
			</output>
		</layer>
		<layer id="81" name="143" type="Add" version="opset1">
			<data auto_broadcast="numpy"/>
			<rt_info>
				<attribute name="fused_names" version="0" value="143"/>
			</rt_info>
			<input>
				<port id="0" precision="FP32">
					<dim>1</dim>
					<dim>128</dim>
					<dim>180</dim>
					<dim>320</dim>
				</port>
				<port id="1" precision="FP32">
					<dim>1</dim>
					<dim>128</dim>
					<dim>180</dim>
					<dim>320</dim>
				</port>
			</input>
			<output>
				<port id="2" precision="FP32" names="143">
					<dim>1</dim>
					<dim>128</dim>
					<dim>180</dim>
					<dim>320</dim>
				</port>
			</output>
		</layer>
		<layer id="82" name="144" type="ReLU" version="opset1">
			<rt_info>
				<attribute name="fused_names" version="0" value="144"/>
			</rt_info>
			<input>
				<port id="0" precision="FP32">
					<dim>1</dim>
					<dim>128</dim>
					<dim>180</dim>
					<dim>320</dim>
				</port>
			</input>
			<output>
				<port id="1" precision="FP32" names="144">
					<dim>1</dim>
					<dim>128</dim>
					<dim>180</dim>
					<dim>320</dim>
				</port>
			</output>
		</layer>
		<layer id="83" name="Split_1075.0" type="Const" version="opset1">
			<data element_type="i64" shape="4" offset="0" size="32"/>
			<output>
				<port id="0" precision="I64">
					<dim>4</dim>
				</port>
			</output>
		</layer>
		<layer id="84" name="Split_1075.1" type="Const" version="opset1">
			<data element_type="i64" shape="4" offset="0" size="32"/>
			<output>
				<port id="0" precision="I64">
					<dim>4</dim>
				</port>
			</output>
		</layer>
		<layer id="85" name="Constant_1073_compressed" type="Const" version="opset1">
			<data element_type="f16" shape="" offset="32" size="2"/>
			<output>
				<port id="0" precision="FP16"/>
			</output>
		</layer>
		<layer id="86" name="Constant_1073" type="Convert" version="opset1">
			<data destination_type="f32"/>
			<rt_info>
				<attribute name="decompression" version="0"/>
				<attribute name="fused_names" version="0" value="Constant_1073"/>
			</rt_info>
			<input>
				<port id="0" precision="FP16"/>
			</input>
			<output>
				<port id="1" precision="FP32"/>
			</output>
		</layer>
		<layer id="87" name="167" type="Pad" version="opset1">
			<data pad_mode="edge"/>
			<rt_info>
				<attribute name="fused_names" version="0" value="167, Split_1075"/>
			</rt_info>
			<input>
				<port id="0" precision="FP32">
					<dim>1</dim>
					<dim>128</dim>
					<dim>180</dim>
					<dim>320</dim>
				</port>
				<port id="1" precision="I64">
					<dim>4</dim>
				</port>
				<port id="2" precision="I64">
					<dim>4</dim>
				</port>
				<port id="3" precision="FP32"/>
			</input>
			<output>
				<port id="4" precision="FP32" names="167">
					<dim>1</dim>
					<dim>128</dim>
					<dim>182</dim>
					<dim>322</dim>
				</port>
			</output>
		</layer>
		<layer id="88" name="encoder.layers.4.branch.0.layers.0.layers.1.weight_compressed" type="Const" version="opset1">
			<data element_type="f16" shape="128, 128, 3, 3" offset="483122" size="294912"/>
			<output>
				<port id="0" precision="FP16">
					<dim>128</dim>
					<dim>128</dim>
					<dim>3</dim>
					<dim>3</dim>
				</port>
			</output>
		</layer>
		<layer id="89" name="encoder.layers.4.branch.0.layers.0.layers.1.weight" type="Convert" version="opset1">
			<data destination_type="f32"/>
			<rt_info>
				<attribute name="decompression" version="0"/>
				<attribute name="fused_names" version="0" value="encoder.layers.4.branch.0.layers.0.layers.1.weight"/>
			</rt_info>
			<input>
				<port id="0" precision="FP16">
					<dim>128</dim>
					<dim>128</dim>
					<dim>3</dim>
					<dim>3</dim>
				</port>
			</input>
			<output>
				<port id="1" precision="FP32" names="encoder.layers.4.branch.0.layers.0.layers.1.weight">
					<dim>128</dim>
					<dim>128</dim>
					<dim>3</dim>
					<dim>3</dim>
				</port>
			</output>
		</layer>
		<layer id="90" name="Convolution_1143" type="Convolution" version="opset1">
			<data strides="1, 1" dilations="1, 1" pads_begin="0, 0" pads_end="0, 0" auto_pad="explicit"/>
			<rt_info>
				<attribute name="fused_names" version="0" value="Convolution_1143"/>
			</rt_info>
			<input>
				<port id="0" precision="FP32">
					<dim>1</dim>
					<dim>128</dim>
					<dim>182</dim>
					<dim>322</dim>
				</port>
				<port id="1" precision="FP32">
					<dim>128</dim>
					<dim>128</dim>
					<dim>3</dim>
					<dim>3</dim>
				</port>
			</input>
			<output>
				<port id="2" precision="FP32">
					<dim>1</dim>
					<dim>128</dim>
					<dim>180</dim>
					<dim>320</dim>
				</port>
			</output>
		</layer>
		<layer id="91" name="Reshape_1163_compressed" type="Const" version="opset1">
			<data element_type="f16" shape="1, 128, 1, 1" offset="778034" size="256"/>
			<output>
				<port id="0" precision="FP16">
					<dim>1</dim>
					<dim>128</dim>
					<dim>1</dim>
					<dim>1</dim>
				</port>
			</output>
		</layer>
		<layer id="92" name="Reshape_1163" type="Convert" version="opset1">
			<data destination_type="f32"/>
			<rt_info>
				<attribute name="decompression" version="0"/>
			</rt_info>
			<input>
				<port id="0" precision="FP16">
					<dim>1</dim>
					<dim>128</dim>
					<dim>1</dim>
					<dim>1</dim>
				</port>
			</input>
			<output>
				<port id="1" precision="FP32">
					<dim>1</dim>
					<dim>128</dim>
					<dim>1</dim>
					<dim>1</dim>
				</port>
			</output>
		</layer>
		<layer id="93" name="168" type="Add" version="opset1">
			<data auto_broadcast="numpy"/>
			<rt_info>
				<attribute name="fused_names" version="0" value="168, Concat_1162, Reshape_1163"/>
			</rt_info>
			<input>
				<port id="0" precision="FP32">
					<dim>1</dim>
					<dim>128</dim>
					<dim>180</dim>
					<dim>320</dim>
				</port>
				<port id="1" precision="FP32">
					<dim>1</dim>
					<dim>128</dim>
					<dim>1</dim>
					<dim>1</dim>
				</port>
			</input>
			<output>
				<port id="2" precision="FP32" names="168">
					<dim>1</dim>
					<dim>128</dim>
					<dim>180</dim>
					<dim>320</dim>
				</port>
			</output>
		</layer>
		<layer id="94" name="Constant_1191" type="Const" version="opset1">
			<data element_type="i64" shape="2" offset="1826" size="16"/>
			<rt_info>
				<attribute name="fused_names" version="0" value="Constant_1191"/>
			</rt_info>
			<output>
				<port id="0" precision="I64">
					<dim>2</dim>
				</port>
			</output>
		</layer>
		<layer id="95" name="MVN_1192" type="MVN" version="opset6">
			<data eps="9.9999997473787516e-06" normalize_variance="true" eps_mode="INSIDE_SQRT"/>
			<rt_info>
				<attribute name="fused_names" version="0" value="MVN_1192"/>
			</rt_info>
			<input>
				<port id="0" precision="FP32">
					<dim>1</dim>
					<dim>128</dim>
					<dim>180</dim>
					<dim>320</dim>
				</port>
				<port id="1" precision="I64">
					<dim>2</dim>
				</port>
			</input>
			<output>
				<port id="2" precision="FP32">
					<dim>1</dim>
					<dim>128</dim>
					<dim>180</dim>
					<dim>320</dim>
				</port>
			</output>
		</layer>
		<layer id="96" name="Reshape_1212_compressed" type="Const" version="opset1">
			<data element_type="f16" shape="1, 128, 1, 1" offset="778290" size="256"/>
			<output>
				<port id="0" precision="FP16">
					<dim>1</dim>
					<dim>128</dim>
					<dim>1</dim>
					<dim>1</dim>
				</port>
			</output>
		</layer>
		<layer id="97" name="Reshape_1212" type="Convert" version="opset1">
			<data destination_type="f32"/>
			<rt_info>
				<attribute name="decompression" version="0"/>
			</rt_info>
			<input>
				<port id="0" precision="FP16">
					<dim>1</dim>
					<dim>128</dim>
					<dim>1</dim>
					<dim>1</dim>
				</port>
			</input>
			<output>
				<port id="1" precision="FP32">
					<dim>1</dim>
					<dim>128</dim>
					<dim>1</dim>
					<dim>1</dim>
				</port>
			</output>
		</layer>
		<layer id="98" name="Multiply_1239" type="Multiply" version="opset1">
			<data auto_broadcast="numpy"/>
			<rt_info>
				<attribute name="fused_names" version="0" value="Concat_1211, Multiply_1239, Reshape_1212"/>
			</rt_info>
			<input>
				<port id="0" precision="FP32">
					<dim>1</dim>
					<dim>128</dim>
					<dim>180</dim>
					<dim>320</dim>
				</port>
				<port id="1" precision="FP32">
					<dim>1</dim>
					<dim>128</dim>
					<dim>1</dim>
					<dim>1</dim>
				</port>
			</input>
			<output>
				<port id="2" precision="FP32">
					<dim>1</dim>
					<dim>128</dim>
					<dim>180</dim>
					<dim>320</dim>
				</port>
			</output>
		</layer>
		<layer id="99" name="Reshape_1257_compressed" type="Const" version="opset1">
			<data element_type="f16" shape="1, 128, 1, 1" offset="778546" size="256"/>
			<output>
				<port id="0" precision="FP16">
					<dim>1</dim>
					<dim>128</dim>
					<dim>1</dim>
					<dim>1</dim>
				</port>
			</output>
		</layer>
		<layer id="100" name="Reshape_1257" type="Convert" version="opset1">
			<data destination_type="f32"/>
			<rt_info>
				<attribute name="decompression" version="0"/>
			</rt_info>
			<input>
				<port id="0" precision="FP16">
					<dim>1</dim>
					<dim>128</dim>
					<dim>1</dim>
					<dim>1</dim>
				</port>
			</input>
			<output>
				<port id="1" precision="FP32">
					<dim>1</dim>
					<dim>128</dim>
					<dim>1</dim>
					<dim>1</dim>
				</port>
			</output>
		</layer>
		<layer id="101" name="169" type="Add" version="opset1">
			<data auto_broadcast="numpy"/>
			<rt_info>
				<attribute name="fused_names" version="0" value="169, Concat_1256, Reshape_1257"/>
			</rt_info>
			<input>
				<port id="0" precision="FP32">
					<dim>1</dim>
					<dim>128</dim>
					<dim>180</dim>
					<dim>320</dim>
				</port>
				<port id="1" precision="FP32">
					<dim>1</dim>
					<dim>128</dim>
					<dim>1</dim>
					<dim>1</dim>
				</port>
			</input>
			<output>
				<port id="2" precision="FP32" names="169">
					<dim>1</dim>
					<dim>128</dim>
					<dim>180</dim>
					<dim>320</dim>
				</port>
			</output>
		</layer>
		<layer id="102" name="170" type="ReLU" version="opset1">
			<rt_info>
				<attribute name="fused_names" version="0" value="170"/>
			</rt_info>
			<input>
				<port id="0" precision="FP32">
					<dim>1</dim>
					<dim>128</dim>
					<dim>180</dim>
					<dim>320</dim>
				</port>
			</input>
			<output>
				<port id="1" precision="FP32" names="170">
					<dim>1</dim>
					<dim>128</dim>
					<dim>180</dim>
					<dim>320</dim>
				</port>
			</output>
		</layer>
		<layer id="103" name="171" type="Add" version="opset1">
			<data auto_broadcast="numpy"/>
			<rt_info>
				<attribute name="fused_names" version="0" value="171"/>
			</rt_info>
			<input>
				<port id="0" precision="FP32">
					<dim>1</dim>
					<dim>128</dim>
					<dim>180</dim>
					<dim>320</dim>
				</port>
				<port id="1" precision="FP32">
					<dim>1</dim>
					<dim>128</dim>
					<dim>180</dim>
					<dim>320</dim>
				</port>
			</input>
			<output>
				<port id="2" precision="FP32" names="171">
					<dim>1</dim>
					<dim>128</dim>
					<dim>180</dim>
					<dim>320</dim>
				</port>
			</output>
		</layer>
		<layer id="104" name="172" type="ReLU" version="opset1">
			<rt_info>
				<attribute name="fused_names" version="0" value="172"/>
			</rt_info>
			<input>
				<port id="0" precision="FP32">
					<dim>1</dim>
					<dim>128</dim>
					<dim>180</dim>
					<dim>320</dim>
				</port>
			</input>
			<output>
				<port id="1" precision="FP32" names="172">
					<dim>1</dim>
					<dim>128</dim>
					<dim>180</dim>
					<dim>320</dim>
				</port>
			</output>
		</layer>
		<layer id="105" name="Split_1321.0" type="Const" version="opset1">
			<data element_type="i64" shape="4" offset="0" size="32"/>
			<output>
				<port id="0" precision="I64">
					<dim>4</dim>
				</port>
			</output>
		</layer>
		<layer id="106" name="Split_1321.1" type="Const" version="opset1">
			<data element_type="i64" shape="4" offset="0" size="32"/>
			<output>
				<port id="0" precision="I64">
					<dim>4</dim>
				</port>
			</output>
		</layer>
		<layer id="107" name="Constant_1319_compressed" type="Const" version="opset1">
			<data element_type="f16" shape="" offset="32" size="2"/>
			<output>
				<port id="0" precision="FP16"/>
			</output>
		</layer>
		<layer id="108" name="Constant_1319" type="Convert" version="opset1">
			<data destination_type="f32"/>
			<rt_info>
				<attribute name="decompression" version="0"/>
				<attribute name="fused_names" version="0" value="Constant_1319"/>
			</rt_info>
			<input>
				<port id="0" precision="FP16"/>
			</input>
			<output>
				<port id="1" precision="FP32"/>
			</output>
		</layer>
		<layer id="109" name="195" type="Pad" version="opset1">
			<data pad_mode="edge"/>
			<rt_info>
				<attribute name="fused_names" version="0" value="195, Split_1321"/>
			</rt_info>
			<input>
				<port id="0" precision="FP32">
					<dim>1</dim>
					<dim>128</dim>
					<dim>180</dim>
					<dim>320</dim>
				</port>
				<port id="1" precision="I64">
					<dim>4</dim>
				</port>
				<port id="2" precision="I64">
					<dim>4</dim>
				</port>
				<port id="3" precision="FP32"/>
			</input>
			<output>
				<port id="4" precision="FP32" names="195">
					<dim>1</dim>
					<dim>128</dim>
					<dim>182</dim>
					<dim>322</dim>
				</port>
			</output>
		</layer>
		<layer id="110" name="encoder.layers.5.branch.0.layers.0.layers.1.weight_compressed" type="Const" version="opset1">
			<data element_type="f16" shape="128, 128, 3, 3" offset="778802" size="294912"/>
			<output>
				<port id="0" precision="FP16">
					<dim>128</dim>
					<dim>128</dim>
					<dim>3</dim>
					<dim>3</dim>
				</port>
			</output>
		</layer>
		<layer id="111" name="encoder.layers.5.branch.0.layers.0.layers.1.weight" type="Convert" version="opset1">
			<data destination_type="f32"/>
			<rt_info>
				<attribute name="decompression" version="0"/>
				<attribute name="fused_names" version="0" value="encoder.layers.5.branch.0.layers.0.layers.1.weight"/>
			</rt_info>
			<input>
				<port id="0" precision="FP16">
					<dim>128</dim>
					<dim>128</dim>
					<dim>3</dim>
					<dim>3</dim>
				</port>
			</input>
			<output>
				<port id="1" precision="FP32" names="encoder.layers.5.branch.0.layers.0.layers.1.weight">
					<dim>128</dim>
					<dim>128</dim>
					<dim>3</dim>
					<dim>3</dim>
				</port>
			</output>
		</layer>
		<layer id="112" name="Convolution_1389" type="Convolution" version="opset1">
			<data strides="1, 1" dilations="1, 1" pads_begin="0, 0" pads_end="0, 0" auto_pad="explicit"/>
			<rt_info>
				<attribute name="fused_names" version="0" value="Convolution_1389"/>
			</rt_info>
			<input>
				<port id="0" precision="FP32">
					<dim>1</dim>
					<dim>128</dim>
					<dim>182</dim>
					<dim>322</dim>
				</port>
				<port id="1" precision="FP32">
					<dim>128</dim>
					<dim>128</dim>
					<dim>3</dim>
					<dim>3</dim>
				</port>
			</input>
			<output>
				<port id="2" precision="FP32">
					<dim>1</dim>
					<dim>128</dim>
					<dim>180</dim>
					<dim>320</dim>
				</port>
			</output>
		</layer>
		<layer id="113" name="Reshape_1409_compressed" type="Const" version="opset1">
			<data element_type="f16" shape="1, 128, 1, 1" offset="1073714" size="256"/>
			<output>
				<port id="0" precision="FP16">
					<dim>1</dim>
					<dim>128</dim>
					<dim>1</dim>
					<dim>1</dim>
				</port>
			</output>
		</layer>
		<layer id="114" name="Reshape_1409" type="Convert" version="opset1">
			<data destination_type="f32"/>
			<rt_info>
				<attribute name="decompression" version="0"/>
			</rt_info>
			<input>
				<port id="0" precision="FP16">
					<dim>1</dim>
					<dim>128</dim>
					<dim>1</dim>
					<dim>1</dim>
				</port>
			</input>
			<output>
				<port id="1" precision="FP32">
					<dim>1</dim>
					<dim>128</dim>
					<dim>1</dim>
					<dim>1</dim>
				</port>
			</output>
		</layer>
		<layer id="115" name="196" type="Add" version="opset1">
			<data auto_broadcast="numpy"/>
			<rt_info>
				<attribute name="fused_names" version="0" value="196, Concat_1408, Reshape_1409"/>
			</rt_info>
			<input>
				<port id="0" precision="FP32">
					<dim>1</dim>
					<dim>128</dim>
					<dim>180</dim>
					<dim>320</dim>
				</port>
				<port id="1" precision="FP32">
					<dim>1</dim>
					<dim>128</dim>
					<dim>1</dim>
					<dim>1</dim>
				</port>
			</input>
			<output>
				<port id="2" precision="FP32" names="196">
					<dim>1</dim>
					<dim>128</dim>
					<dim>180</dim>
					<dim>320</dim>
				</port>
			</output>
		</layer>
		<layer id="116" name="Constant_1437" type="Const" version="opset1">
			<data element_type="i64" shape="2" offset="1826" size="16"/>
			<rt_info>
				<attribute name="fused_names" version="0" value="Constant_1437"/>
			</rt_info>
			<output>
				<port id="0" precision="I64">
					<dim>2</dim>
				</port>
			</output>
		</layer>
		<layer id="117" name="MVN_1438" type="MVN" version="opset6">
			<data eps="9.9999997473787516e-06" normalize_variance="true" eps_mode="INSIDE_SQRT"/>
			<rt_info>
				<attribute name="fused_names" version="0" value="MVN_1438"/>
			</rt_info>
			<input>
				<port id="0" precision="FP32">
					<dim>1</dim>
					<dim>128</dim>
					<dim>180</dim>
					<dim>320</dim>
				</port>
				<port id="1" precision="I64">
					<dim>2</dim>
				</port>
			</input>
			<output>
				<port id="2" precision="FP32">
					<dim>1</dim>
					<dim>128</dim>
					<dim>180</dim>
					<dim>320</dim>
				</port>
			</output>
		</layer>
		<layer id="118" name="Reshape_1458_compressed" type="Const" version="opset1">
			<data element_type="f16" shape="1, 128, 1, 1" offset="1073970" size="256"/>
			<output>
				<port id="0" precision="FP16">
					<dim>1</dim>
					<dim>128</dim>
					<dim>1</dim>
					<dim>1</dim>
				</port>
			</output>
		</layer>
		<layer id="119" name="Reshape_1458" type="Convert" version="opset1">
			<data destination_type="f32"/>
			<rt_info>
				<attribute name="decompression" version="0"/>
			</rt_info>
			<input>
				<port id="0" precision="FP16">
					<dim>1</dim>
					<dim>128</dim>
					<dim>1</dim>
					<dim>1</dim>
				</port>
			</input>
			<output>
				<port id="1" precision="FP32">
					<dim>1</dim>
					<dim>128</dim>
					<dim>1</dim>
					<dim>1</dim>
				</port>
			</output>
		</layer>
		<layer id="120" name="Multiply_1485" type="Multiply" version="opset1">
			<data auto_broadcast="numpy"/>
			<rt_info>
				<attribute name="fused_names" version="0" value="Concat_1457, Multiply_1485, Reshape_1458"/>
			</rt_info>
			<input>
				<port id="0" precision="FP32">
					<dim>1</dim>
					<dim>128</dim>
					<dim>180</dim>
					<dim>320</dim>
				</port>
				<port id="1" precision="FP32">
					<dim>1</dim>
					<dim>128</dim>
					<dim>1</dim>
					<dim>1</dim>
				</port>
			</input>
			<output>
				<port id="2" precision="FP32">
					<dim>1</dim>
					<dim>128</dim>
					<dim>180</dim>
					<dim>320</dim>
				</port>
			</output>
		</layer>
		<layer id="121" name="Reshape_1503_compressed" type="Const" version="opset1">
			<data element_type="f16" shape="1, 128, 1, 1" offset="1074226" size="256"/>
			<output>
				<port id="0" precision="FP16">
					<dim>1</dim>
					<dim>128</dim>
					<dim>1</dim>
					<dim>1</dim>
				</port>
			</output>
		</layer>
		<layer id="122" name="Reshape_1503" type="Convert" version="opset1">
			<data destination_type="f32"/>
			<rt_info>
				<attribute name="decompression" version="0"/>
			</rt_info>
			<input>
				<port id="0" precision="FP16">
					<dim>1</dim>
					<dim>128</dim>
					<dim>1</dim>
					<dim>1</dim>
				</port>
			</input>
			<output>
				<port id="1" precision="FP32">
					<dim>1</dim>
					<dim>128</dim>
					<dim>1</dim>
					<dim>1</dim>
				</port>
			</output>
		</layer>
		<layer id="123" name="197" type="Add" version="opset1">
			<data auto_broadcast="numpy"/>
			<rt_info>
				<attribute name="fused_names" version="0" value="197, Concat_1502, Reshape_1503"/>
			</rt_info>
			<input>
				<port id="0" precision="FP32">
					<dim>1</dim>
					<dim>128</dim>
					<dim>180</dim>
					<dim>320</dim>
				</port>
				<port id="1" precision="FP32">
					<dim>1</dim>
					<dim>128</dim>
					<dim>1</dim>
					<dim>1</dim>
				</port>
			</input>
			<output>
				<port id="2" precision="FP32" names="197">
					<dim>1</dim>
					<dim>128</dim>
					<dim>180</dim>
					<dim>320</dim>
				</port>
			</output>
		</layer>
		<layer id="124" name="198" type="ReLU" version="opset1">
			<rt_info>
				<attribute name="fused_names" version="0" value="198"/>
			</rt_info>
			<input>
				<port id="0" precision="FP32">
					<dim>1</dim>
					<dim>128</dim>
					<dim>180</dim>
					<dim>320</dim>
				</port>
			</input>
			<output>
				<port id="1" precision="FP32" names="198">
					<dim>1</dim>
					<dim>128</dim>
					<dim>180</dim>
					<dim>320</dim>
				</port>
			</output>
		</layer>
		<layer id="125" name="199" type="Add" version="opset1">
			<data auto_broadcast="numpy"/>
			<rt_info>
				<attribute name="fused_names" version="0" value="199"/>
			</rt_info>
			<input>
				<port id="0" precision="FP32">
					<dim>1</dim>
					<dim>128</dim>
					<dim>180</dim>
					<dim>320</dim>
				</port>
				<port id="1" precision="FP32">
					<dim>1</dim>
					<dim>128</dim>
					<dim>180</dim>
					<dim>320</dim>
				</port>
			</input>
			<output>
				<port id="2" precision="FP32" names="199">
					<dim>1</dim>
					<dim>128</dim>
					<dim>180</dim>
					<dim>320</dim>
				</port>
			</output>
		</layer>
		<layer id="126" name="200" type="ReLU" version="opset1">
			<rt_info>
				<attribute name="fused_names" version="0" value="200"/>
			</rt_info>
			<input>
				<port id="0" precision="FP32">
					<dim>1</dim>
					<dim>128</dim>
					<dim>180</dim>
					<dim>320</dim>
				</port>
			</input>
			<output>
				<port id="1" precision="FP32" names="200">
					<dim>1</dim>
					<dim>128</dim>
					<dim>180</dim>
					<dim>320</dim>
				</port>
			</output>
		</layer>
		<layer id="127" name="Split_1567.0" type="Const" version="opset1">
			<data element_type="i64" shape="4" offset="0" size="32"/>
			<output>
				<port id="0" precision="I64">
					<dim>4</dim>
				</port>
			</output>
		</layer>
		<layer id="128" name="Split_1567.1" type="Const" version="opset1">
			<data element_type="i64" shape="4" offset="0" size="32"/>
			<output>
				<port id="0" precision="I64">
					<dim>4</dim>
				</port>
			</output>
		</layer>
		<layer id="129" name="Constant_1565_compressed" type="Const" version="opset1">
			<data element_type="f16" shape="" offset="32" size="2"/>
			<output>
				<port id="0" precision="FP16"/>
			</output>
		</layer>
		<layer id="130" name="Constant_1565" type="Convert" version="opset1">
			<data destination_type="f32"/>
			<rt_info>
				<attribute name="decompression" version="0"/>
				<attribute name="fused_names" version="0" value="Constant_1565"/>
			</rt_info>
			<input>
				<port id="0" precision="FP16"/>
			</input>
			<output>
				<port id="1" precision="FP32"/>
			</output>
		</layer>
		<layer id="131" name="223" type="Pad" version="opset1">
			<data pad_mode="edge"/>
			<rt_info>
				<attribute name="fused_names" version="0" value="223, Split_1567"/>
			</rt_info>
			<input>
				<port id="0" precision="FP32">
					<dim>1</dim>
					<dim>128</dim>
					<dim>180</dim>
					<dim>320</dim>
				</port>
				<port id="1" precision="I64">
					<dim>4</dim>
				</port>
				<port id="2" precision="I64">
					<dim>4</dim>
				</port>
				<port id="3" precision="FP32"/>
			</input>
			<output>
				<port id="4" precision="FP32" names="223">
					<dim>1</dim>
					<dim>128</dim>
					<dim>182</dim>
					<dim>322</dim>
				</port>
			</output>
		</layer>
		<layer id="132" name="encoder.layers.6.branch.0.layers.0.layers.1.weight_compressed" type="Const" version="opset1">
			<data element_type="f16" shape="128, 128, 3, 3" offset="1074482" size="294912"/>
			<output>
				<port id="0" precision="FP16">
					<dim>128</dim>
					<dim>128</dim>
					<dim>3</dim>
					<dim>3</dim>
				</port>
			</output>
		</layer>
		<layer id="133" name="encoder.layers.6.branch.0.layers.0.layers.1.weight" type="Convert" version="opset1">
			<data destination_type="f32"/>
			<rt_info>
				<attribute name="decompression" version="0"/>
				<attribute name="fused_names" version="0" value="encoder.layers.6.branch.0.layers.0.layers.1.weight"/>
			</rt_info>
			<input>
				<port id="0" precision="FP16">
					<dim>128</dim>
					<dim>128</dim>
					<dim>3</dim>
					<dim>3</dim>
				</port>
			</input>
			<output>
				<port id="1" precision="FP32" names="encoder.layers.6.branch.0.layers.0.layers.1.weight">
					<dim>128</dim>
					<dim>128</dim>
					<dim>3</dim>
					<dim>3</dim>
				</port>
			</output>
		</layer>
		<layer id="134" name="Convolution_1635" type="Convolution" version="opset1">
			<data strides="1, 1" dilations="1, 1" pads_begin="0, 0" pads_end="0, 0" auto_pad="explicit"/>
			<rt_info>
				<attribute name="fused_names" version="0" value="Convolution_1635"/>
			</rt_info>
			<input>
				<port id="0" precision="FP32">
					<dim>1</dim>
					<dim>128</dim>
					<dim>182</dim>
					<dim>322</dim>
				</port>
				<port id="1" precision="FP32">
					<dim>128</dim>
					<dim>128</dim>
					<dim>3</dim>
					<dim>3</dim>
				</port>
			</input>
			<output>
				<port id="2" precision="FP32">
					<dim>1</dim>
					<dim>128</dim>
					<dim>180</dim>
					<dim>320</dim>
				</port>
			</output>
		</layer>
		<layer id="135" name="Reshape_1655_compressed" type="Const" version="opset1">
			<data element_type="f16" shape="1, 128, 1, 1" offset="1369394" size="256"/>
			<output>
				<port id="0" precision="FP16">
					<dim>1</dim>
					<dim>128</dim>
					<dim>1</dim>
					<dim>1</dim>
				</port>
			</output>
		</layer>
		<layer id="136" name="Reshape_1655" type="Convert" version="opset1">
			<data destination_type="f32"/>
			<rt_info>
				<attribute name="decompression" version="0"/>
			</rt_info>
			<input>
				<port id="0" precision="FP16">
					<dim>1</dim>
					<dim>128</dim>
					<dim>1</dim>
					<dim>1</dim>
				</port>
			</input>
			<output>
				<port id="1" precision="FP32">
					<dim>1</dim>
					<dim>128</dim>
					<dim>1</dim>
					<dim>1</dim>
				</port>
			</output>
		</layer>
		<layer id="137" name="224" type="Add" version="opset1">
			<data auto_broadcast="numpy"/>
			<rt_info>
				<attribute name="fused_names" version="0" value="224, Concat_1654, Reshape_1655"/>
			</rt_info>
			<input>
				<port id="0" precision="FP32">
					<dim>1</dim>
					<dim>128</dim>
					<dim>180</dim>
					<dim>320</dim>
				</port>
				<port id="1" precision="FP32">
					<dim>1</dim>
					<dim>128</dim>
					<dim>1</dim>
					<dim>1</dim>
				</port>
			</input>
			<output>
				<port id="2" precision="FP32" names="224">
					<dim>1</dim>
					<dim>128</dim>
					<dim>180</dim>
					<dim>320</dim>
				</port>
			</output>
		</layer>
		<layer id="138" name="Constant_1683" type="Const" version="opset1">
			<data element_type="i64" shape="2" offset="1826" size="16"/>
			<rt_info>
				<attribute name="fused_names" version="0" value="Constant_1683"/>
			</rt_info>
			<output>
				<port id="0" precision="I64">
					<dim>2</dim>
				</port>
			</output>
		</layer>
		<layer id="139" name="MVN_1684" type="MVN" version="opset6">
			<data eps="9.9999997473787516e-06" normalize_variance="true" eps_mode="INSIDE_SQRT"/>
			<rt_info>
				<attribute name="fused_names" version="0" value="MVN_1684"/>
			</rt_info>
			<input>
				<port id="0" precision="FP32">
					<dim>1</dim>
					<dim>128</dim>
					<dim>180</dim>
					<dim>320</dim>
				</port>
				<port id="1" precision="I64">
					<dim>2</dim>
				</port>
			</input>
			<output>
				<port id="2" precision="FP32">
					<dim>1</dim>
					<dim>128</dim>
					<dim>180</dim>
					<dim>320</dim>
				</port>
			</output>
		</layer>
		<layer id="140" name="Reshape_1704_compressed" type="Const" version="opset1">
			<data element_type="f16" shape="1, 128, 1, 1" offset="1369650" size="256"/>
			<output>
				<port id="0" precision="FP16">
					<dim>1</dim>
					<dim>128</dim>
					<dim>1</dim>
					<dim>1</dim>
				</port>
			</output>
		</layer>
		<layer id="141" name="Reshape_1704" type="Convert" version="opset1">
			<data destination_type="f32"/>
			<rt_info>
				<attribute name="decompression" version="0"/>
			</rt_info>
			<input>
				<port id="0" precision="FP16">
					<dim>1</dim>
					<dim>128</dim>
					<dim>1</dim>
					<dim>1</dim>
				</port>
			</input>
			<output>
				<port id="1" precision="FP32">
					<dim>1</dim>
					<dim>128</dim>
					<dim>1</dim>
					<dim>1</dim>
				</port>
			</output>
		</layer>
		<layer id="142" name="Multiply_1731" type="Multiply" version="opset1">
			<data auto_broadcast="numpy"/>
			<rt_info>
				<attribute name="fused_names" version="0" value="Concat_1703, Multiply_1731, Reshape_1704"/>
			</rt_info>
			<input>
				<port id="0" precision="FP32">
					<dim>1</dim>
					<dim>128</dim>
					<dim>180</dim>
					<dim>320</dim>
				</port>
				<port id="1" precision="FP32">
					<dim>1</dim>
					<dim>128</dim>
					<dim>1</dim>
					<dim>1</dim>
				</port>
			</input>
			<output>
				<port id="2" precision="FP32">
					<dim>1</dim>
					<dim>128</dim>
					<dim>180</dim>
					<dim>320</dim>
				</port>
			</output>
		</layer>
		<layer id="143" name="Reshape_1749_compressed" type="Const" version="opset1">
			<data element_type="f16" shape="1, 128, 1, 1" offset="1369906" size="256"/>
			<output>
				<port id="0" precision="FP16">
					<dim>1</dim>
					<dim>128</dim>
					<dim>1</dim>
					<dim>1</dim>
				</port>
			</output>
		</layer>
		<layer id="144" name="Reshape_1749" type="Convert" version="opset1">
			<data destination_type="f32"/>
			<rt_info>
				<attribute name="decompression" version="0"/>
			</rt_info>
			<input>
				<port id="0" precision="FP16">
					<dim>1</dim>
					<dim>128</dim>
					<dim>1</dim>
					<dim>1</dim>
				</port>
			</input>
			<output>
				<port id="1" precision="FP32">
					<dim>1</dim>
					<dim>128</dim>
					<dim>1</dim>
					<dim>1</dim>
				</port>
			</output>
		</layer>
		<layer id="145" name="225" type="Add" version="opset1">
			<data auto_broadcast="numpy"/>
			<rt_info>
				<attribute name="fused_names" version="0" value="225, Concat_1748, Reshape_1749"/>
			</rt_info>
			<input>
				<port id="0" precision="FP32">
					<dim>1</dim>
					<dim>128</dim>
					<dim>180</dim>
					<dim>320</dim>
				</port>
				<port id="1" precision="FP32">
					<dim>1</dim>
					<dim>128</dim>
					<dim>1</dim>
					<dim>1</dim>
				</port>
			</input>
			<output>
				<port id="2" precision="FP32" names="225">
					<dim>1</dim>
					<dim>128</dim>
					<dim>180</dim>
					<dim>320</dim>
				</port>
			</output>
		</layer>
		<layer id="146" name="226" type="ReLU" version="opset1">
			<rt_info>
				<attribute name="fused_names" version="0" value="226"/>
			</rt_info>
			<input>
				<port id="0" precision="FP32">
					<dim>1</dim>
					<dim>128</dim>
					<dim>180</dim>
					<dim>320</dim>
				</port>
			</input>
			<output>
				<port id="1" precision="FP32" names="226">
					<dim>1</dim>
					<dim>128</dim>
					<dim>180</dim>
					<dim>320</dim>
				</port>
			</output>
		</layer>
		<layer id="147" name="227" type="Add" version="opset1">
			<data auto_broadcast="numpy"/>
			<rt_info>
				<attribute name="fused_names" version="0" value="227"/>
			</rt_info>
			<input>
				<port id="0" precision="FP32">
					<dim>1</dim>
					<dim>128</dim>
					<dim>180</dim>
					<dim>320</dim>
				</port>
				<port id="1" precision="FP32">
					<dim>1</dim>
					<dim>128</dim>
					<dim>180</dim>
					<dim>320</dim>
				</port>
			</input>
			<output>
				<port id="2" precision="FP32" names="227">
					<dim>1</dim>
					<dim>128</dim>
					<dim>180</dim>
					<dim>320</dim>
				</port>
			</output>
		</layer>
		<layer id="148" name="228" type="ReLU" version="opset1">
			<rt_info>
				<attribute name="fused_names" version="0" value="228"/>
			</rt_info>
			<input>
				<port id="0" precision="FP32">
					<dim>1</dim>
					<dim>128</dim>
					<dim>180</dim>
					<dim>320</dim>
				</port>
			</input>
			<output>
				<port id="1" precision="FP32" names="228">
					<dim>1</dim>
					<dim>128</dim>
					<dim>180</dim>
					<dim>320</dim>
				</port>
			</output>
		</layer>
		<layer id="149" name="ShapeOf_1781" type="ShapeOf" version="opset3">
			<data output_type="i64"/>
			<rt_info>
				<attribute name="fused_names" version="0" value="ShapeOf_1781"/>
			</rt_info>
			<input>
				<port id="0" precision="FP32">
					<dim>1</dim>
					<dim>128</dim>
					<dim>180</dim>
					<dim>320</dim>
				</port>
			</input>
			<output>
				<port id="1" precision="I64">
					<dim>4</dim>
				</port>
			</output>
		</layer>
		<layer id="150" name="Convert_1782" type="Convert" version="opset1">
			<data destination_type="f32"/>
			<rt_info>
				<attribute name="fused_names" version="0" value="Convert_1782"/>
			</rt_info>
			<input>
				<port id="0" precision="I64">
					<dim>4</dim>
				</port>
			</input>
			<output>
				<port id="1" precision="FP32">
					<dim>4</dim>
				</port>
			</output>
		</layer>
		<layer id="151" name="364" type="Const" version="opset1">
			<data element_type="f32" shape="4" offset="1370162" size="16"/>
			<rt_info>
				<attribute name="fused_names" version="0" value="364"/>
			</rt_info>
			<output>
				<port id="0" precision="FP32" names="364">
					<dim>4</dim>
				</port>
			</output>
		</layer>
		<layer id="152" name="Multiply_1783" type="Multiply" version="opset1">
			<data auto_broadcast="numpy"/>
			<rt_info>
				<attribute name="fused_names" version="0" value="Multiply_1783"/>
			</rt_info>
			<input>
				<port id="0" precision="FP32">
					<dim>4</dim>
				</port>
				<port id="1" precision="FP32">
					<dim>4</dim>
				</port>
			</input>
			<output>
				<port id="2" precision="FP32">
					<dim>4</dim>
				</port>
			</output>
		</layer>
		<layer id="153" name="Convert_1784" type="Convert" version="opset1">
			<data destination_type="i64"/>
			<rt_info>
				<attribute name="fused_names" version="0" value="Convert_1784"/>
			</rt_info>
			<input>
				<port id="0" precision="FP32">
					<dim>4</dim>
				</port>
			</input>
			<output>
				<port id="1" precision="I64">
					<dim>4</dim>
				</port>
			</output>
		</layer>
		<layer id="154" name="233" type="Interpolate" version="opset4">
			<data mode="nearest" shape_calculation_mode="scales" coordinate_transformation_mode="asymmetric" nearest_mode="floor" antialias="false" pads_begin="0, 0, 0, 0" pads_end="0, 0, 0, 0" cube_coeff="-0.75"/>
			<rt_info>
				<attribute name="fused_names" version="0" value="233"/>
			</rt_info>
			<input>
				<port id="0" precision="FP32">
					<dim>1</dim>
					<dim>128</dim>
					<dim>180</dim>
					<dim>320</dim>
				</port>
				<port id="1" precision="I64">
					<dim>4</dim>
				</port>
				<port id="2" precision="FP32">
					<dim>4</dim>
				</port>
			</input>
			<output>
				<port id="3" precision="FP32" names="233">
					<dim>1</dim>
					<dim>128</dim>
					<dim>360</dim>
					<dim>640</dim>
				</port>
			</output>
		</layer>
		<layer id="155" name="Split_1819.0" type="Const" version="opset1">
			<data element_type="i64" shape="4" offset="0" size="32"/>
			<output>
				<port id="0" precision="I64">
					<dim>4</dim>
				</port>
			</output>
		</layer>
		<layer id="156" name="Split_1819.1" type="Const" version="opset1">
			<data element_type="i64" shape="4" offset="0" size="32"/>
			<output>
				<port id="0" precision="I64">
					<dim>4</dim>
				</port>
			</output>
		</layer>
		<layer id="157" name="Constant_1817_compressed" type="Const" version="opset1">
			<data element_type="f16" shape="" offset="32" size="2"/>
			<output>
				<port id="0" precision="FP16"/>
			</output>
		</layer>
		<layer id="158" name="Constant_1817" type="Convert" version="opset1">
			<data destination_type="f32"/>
			<rt_info>
				<attribute name="decompression" version="0"/>
				<attribute name="fused_names" version="0" value="Constant_1817"/>
			</rt_info>
			<input>
				<port id="0" precision="FP16"/>
			</input>
			<output>
				<port id="1" precision="FP32"/>
			</output>
		</layer>
		<layer id="159" name="256" type="Pad" version="opset1">
			<data pad_mode="edge"/>
			<rt_info>
				<attribute name="fused_names" version="0" value="256, Split_1819"/>
			</rt_info>
			<input>
				<port id="0" precision="FP32">
					<dim>1</dim>
					<dim>128</dim>
					<dim>360</dim>
					<dim>640</dim>
				</port>
				<port id="1" precision="I64">
					<dim>4</dim>
				</port>
				<port id="2" precision="I64">
					<dim>4</dim>
				</port>
				<port id="3" precision="FP32"/>
			</input>
			<output>
				<port id="4" precision="FP32" names="256">
					<dim>1</dim>
					<dim>128</dim>
					<dim>362</dim>
					<dim>642</dim>
				</port>
			</output>
		</layer>
		<layer id="160" name="decoder.layers.1.layers.0.layers.1.weight_compressed" type="Const" version="opset1">
			<data element_type="f16" shape="64, 128, 3, 3" offset="1370178" size="147456"/>
			<output>
				<port id="0" precision="FP16">
					<dim>64</dim>
					<dim>128</dim>
					<dim>3</dim>
					<dim>3</dim>
				</port>
			</output>
		</layer>
		<layer id="161" name="decoder.layers.1.layers.0.layers.1.weight" type="Convert" version="opset1">
			<data destination_type="f32"/>
			<rt_info>
				<attribute name="decompression" version="0"/>
				<attribute name="fused_names" version="0" value="decoder.layers.1.layers.0.layers.1.weight"/>
			</rt_info>
			<input>
				<port id="0" precision="FP16">
					<dim>64</dim>
					<dim>128</dim>
					<dim>3</dim>
					<dim>3</dim>
				</port>
			</input>
			<output>
				<port id="1" precision="FP32" names="decoder.layers.1.layers.0.layers.1.weight">
					<dim>64</dim>
					<dim>128</dim>
					<dim>3</dim>
					<dim>3</dim>
				</port>
			</output>
		</layer>
		<layer id="162" name="Convolution_1887" type="Convolution" version="opset1">
			<data strides="1, 1" dilations="1, 1" pads_begin="0, 0" pads_end="0, 0" auto_pad="explicit"/>
			<rt_info>
				<attribute name="fused_names" version="0" value="Convolution_1887"/>
			</rt_info>
			<input>
				<port id="0" precision="FP32">
					<dim>1</dim>
					<dim>128</dim>
					<dim>362</dim>
					<dim>642</dim>
				</port>
				<port id="1" precision="FP32">
					<dim>64</dim>
					<dim>128</dim>
					<dim>3</dim>
					<dim>3</dim>
				</port>
			</input>
			<output>
				<port id="2" precision="FP32">
					<dim>1</dim>
					<dim>64</dim>
					<dim>360</dim>
					<dim>640</dim>
				</port>
			</output>
		</layer>
		<layer id="163" name="Reshape_1907_compressed" type="Const" version="opset1">
			<data element_type="f16" shape="1, 64, 1, 1" offset="1517634" size="128"/>
			<output>
				<port id="0" precision="FP16">
					<dim>1</dim>
					<dim>64</dim>
					<dim>1</dim>
					<dim>1</dim>
				</port>
			</output>
		</layer>
		<layer id="164" name="Reshape_1907" type="Convert" version="opset1">
			<data destination_type="f32"/>
			<rt_info>
				<attribute name="decompression" version="0"/>
			</rt_info>
			<input>
				<port id="0" precision="FP16">
					<dim>1</dim>
					<dim>64</dim>
					<dim>1</dim>
					<dim>1</dim>
				</port>
			</input>
			<output>
				<port id="1" precision="FP32">
					<dim>1</dim>
					<dim>64</dim>
					<dim>1</dim>
					<dim>1</dim>
				</port>
			</output>
		</layer>
		<layer id="165" name="257" type="Add" version="opset1">
			<data auto_broadcast="numpy"/>
			<rt_info>
				<attribute name="fused_names" version="0" value="257, Concat_1906, Reshape_1907"/>
			</rt_info>
			<input>
				<port id="0" precision="FP32">
					<dim>1</dim>
					<dim>64</dim>
					<dim>360</dim>
					<dim>640</dim>
				</port>
				<port id="1" precision="FP32">
					<dim>1</dim>
					<dim>64</dim>
					<dim>1</dim>
					<dim>1</dim>
				</port>
			</input>
			<output>
				<port id="2" precision="FP32" names="257">
					<dim>1</dim>
					<dim>64</dim>
					<dim>360</dim>
					<dim>640</dim>
				</port>
			</output>
		</layer>
		<layer id="166" name="Constant_1935" type="Const" version="opset1">
			<data element_type="i64" shape="2" offset="1826" size="16"/>
			<rt_info>
				<attribute name="fused_names" version="0" value="Constant_1935"/>
			</rt_info>
			<output>
				<port id="0" precision="I64">
					<dim>2</dim>
				</port>
			</output>
		</layer>
		<layer id="167" name="MVN_1936" type="MVN" version="opset6">
			<data eps="9.9999997473787516e-06" normalize_variance="true" eps_mode="INSIDE_SQRT"/>
			<rt_info>
				<attribute name="fused_names" version="0" value="MVN_1936"/>
			</rt_info>
			<input>
				<port id="0" precision="FP32">
					<dim>1</dim>
					<dim>64</dim>
					<dim>360</dim>
					<dim>640</dim>
				</port>
				<port id="1" precision="I64">
					<dim>2</dim>
				</port>
			</input>
			<output>
				<port id="2" precision="FP32">
					<dim>1</dim>
					<dim>64</dim>
					<dim>360</dim>
					<dim>640</dim>
				</port>
			</output>
		</layer>
		<layer id="168" name="Reshape_1956_compressed" type="Const" version="opset1">
			<data element_type="f16" shape="1, 64, 1, 1" offset="1517762" size="128"/>
			<output>
				<port id="0" precision="FP16">
					<dim>1</dim>
					<dim>64</dim>
					<dim>1</dim>
					<dim>1</dim>
				</port>
			</output>
		</layer>
		<layer id="169" name="Reshape_1956" type="Convert" version="opset1">
			<data destination_type="f32"/>
			<rt_info>
				<attribute name="decompression" version="0"/>
			</rt_info>
			<input>
				<port id="0" precision="FP16">
					<dim>1</dim>
					<dim>64</dim>
					<dim>1</dim>
					<dim>1</dim>
				</port>
			</input>
			<output>
				<port id="1" precision="FP32">
					<dim>1</dim>
					<dim>64</dim>
					<dim>1</dim>
					<dim>1</dim>
				</port>
			</output>
		</layer>
		<layer id="170" name="Multiply_1983" type="Multiply" version="opset1">
			<data auto_broadcast="numpy"/>
			<rt_info>
				<attribute name="fused_names" version="0" value="Concat_1955, Multiply_1983, Reshape_1956"/>
			</rt_info>
			<input>
				<port id="0" precision="FP32">
					<dim>1</dim>
					<dim>64</dim>
					<dim>360</dim>
					<dim>640</dim>
				</port>
				<port id="1" precision="FP32">
					<dim>1</dim>
					<dim>64</dim>
					<dim>1</dim>
					<dim>1</dim>
				</port>
			</input>
			<output>
				<port id="2" precision="FP32">
					<dim>1</dim>
					<dim>64</dim>
					<dim>360</dim>
					<dim>640</dim>
				</port>
			</output>
		</layer>
		<layer id="171" name="Reshape_2001_compressed" type="Const" version="opset1">
			<data element_type="f16" shape="1, 64, 1, 1" offset="1517890" size="128"/>
			<output>
				<port id="0" precision="FP16">
					<dim>1</dim>
					<dim>64</dim>
					<dim>1</dim>
					<dim>1</dim>
				</port>
			</output>
		</layer>
		<layer id="172" name="Reshape_2001" type="Convert" version="opset1">
			<data destination_type="f32"/>
			<rt_info>
				<attribute name="decompression" version="0"/>
			</rt_info>
			<input>
				<port id="0" precision="FP16">
					<dim>1</dim>
					<dim>64</dim>
					<dim>1</dim>
					<dim>1</dim>
				</port>
			</input>
			<output>
				<port id="1" precision="FP32">
					<dim>1</dim>
					<dim>64</dim>
					<dim>1</dim>
					<dim>1</dim>
				</port>
			</output>
		</layer>
		<layer id="173" name="258" type="Add" version="opset1">
			<data auto_broadcast="numpy"/>
			<rt_info>
				<attribute name="fused_names" version="0" value="258, Concat_2000, Reshape_2001"/>
			</rt_info>
			<input>
				<port id="0" precision="FP32">
					<dim>1</dim>
					<dim>64</dim>
					<dim>360</dim>
					<dim>640</dim>
				</port>
				<port id="1" precision="FP32">
					<dim>1</dim>
					<dim>64</dim>
					<dim>1</dim>
					<dim>1</dim>
				</port>
			</input>
			<output>
				<port id="2" precision="FP32" names="258">
					<dim>1</dim>
					<dim>64</dim>
					<dim>360</dim>
					<dim>640</dim>
				</port>
			</output>
		</layer>
		<layer id="174" name="259" type="ReLU" version="opset1">
			<rt_info>
				<attribute name="fused_names" version="0" value="259"/>
			</rt_info>
			<input>
				<port id="0" precision="FP32">
					<dim>1</dim>
					<dim>64</dim>
					<dim>360</dim>
					<dim>640</dim>
				</port>
			</input>
			<output>
				<port id="1" precision="FP32" names="259">
					<dim>1</dim>
					<dim>64</dim>
					<dim>360</dim>
					<dim>640</dim>
				</port>
			</output>
		</layer>
		<layer id="175" name="ShapeOf_2031" type="ShapeOf" version="opset3">
			<data output_type="i64"/>
			<rt_info>
				<attribute name="fused_names" version="0" value="ShapeOf_2031"/>
			</rt_info>
			<input>
				<port id="0" precision="FP32">
					<dim>1</dim>
					<dim>64</dim>
					<dim>360</dim>
					<dim>640</dim>
				</port>
			</input>
			<output>
				<port id="1" precision="I64">
					<dim>4</dim>
				</port>
			</output>
		</layer>
		<layer id="176" name="Convert_2032" type="Convert" version="opset1">
			<data destination_type="f32"/>
			<rt_info>
				<attribute name="fused_names" version="0" value="Convert_2032"/>
			</rt_info>
			<input>
				<port id="0" precision="I64">
					<dim>4</dim>
				</port>
			</input>
			<output>
				<port id="1" precision="FP32">
					<dim>4</dim>
				</port>
			</output>
		</layer>
		<layer id="177" name="370" type="Const" version="opset1">
			<data element_type="f32" shape="4" offset="1370162" size="16"/>
			<rt_info>
				<attribute name="fused_names" version="0" value="370"/>
			</rt_info>
			<output>
				<port id="0" precision="FP32" names="370">
					<dim>4</dim>
				</port>
			</output>
		</layer>
		<layer id="178" name="Multiply_2033" type="Multiply" version="opset1">
			<data auto_broadcast="numpy"/>
			<rt_info>
				<attribute name="fused_names" version="0" value="Multiply_2033"/>
			</rt_info>
			<input>
				<port id="0" precision="FP32">
					<dim>4</dim>
				</port>
				<port id="1" precision="FP32">
					<dim>4</dim>
				</port>
			</input>
			<output>
				<port id="2" precision="FP32">
					<dim>4</dim>
				</port>
			</output>
		</layer>
		<layer id="179" name="Convert_2034" type="Convert" version="opset1">
			<data destination_type="i64"/>
			<rt_info>
				<attribute name="fused_names" version="0" value="Convert_2034"/>
			</rt_info>
			<input>
				<port id="0" precision="FP32">
					<dim>4</dim>
				</port>
			</input>
			<output>
				<port id="1" precision="I64">
					<dim>4</dim>
				</port>
			</output>
		</layer>
		<layer id="180" name="264" type="Interpolate" version="opset4">
			<data mode="nearest" shape_calculation_mode="scales" coordinate_transformation_mode="asymmetric" nearest_mode="floor" antialias="false" pads_begin="0, 0, 0, 0" pads_end="0, 0, 0, 0" cube_coeff="-0.75"/>
			<rt_info>
				<attribute name="fused_names" version="0" value="264"/>
			</rt_info>
			<input>
				<port id="0" precision="FP32">
					<dim>1</dim>
					<dim>64</dim>
					<dim>360</dim>
					<dim>640</dim>
				</port>
				<port id="1" precision="I64">
					<dim>4</dim>
				</port>
				<port id="2" precision="FP32">
					<dim>4</dim>
				</port>
			</input>
			<output>
				<port id="3" precision="FP32" names="264">
					<dim>1</dim>
					<dim>64</dim>
					<dim>720</dim>
					<dim>1280</dim>
				</port>
			</output>
		</layer>
		<layer id="181" name="Split_2069.0" type="Const" version="opset1">
			<data element_type="i64" shape="4" offset="0" size="32"/>
			<output>
				<port id="0" precision="I64">
					<dim>4</dim>
				</port>
			</output>
		</layer>
		<layer id="182" name="Split_2069.1" type="Const" version="opset1">
			<data element_type="i64" shape="4" offset="0" size="32"/>
			<output>
				<port id="0" precision="I64">
					<dim>4</dim>
				</port>
			</output>
		</layer>
		<layer id="183" name="Constant_2067_compressed" type="Const" version="opset1">
			<data element_type="f16" shape="" offset="32" size="2"/>
			<output>
				<port id="0" precision="FP16"/>
			</output>
		</layer>
		<layer id="184" name="Constant_2067" type="Convert" version="opset1">
			<data destination_type="f32"/>
			<rt_info>
				<attribute name="decompression" version="0"/>
				<attribute name="fused_names" version="0" value="Constant_2067"/>
			</rt_info>
			<input>
				<port id="0" precision="FP16"/>
			</input>
			<output>
				<port id="1" precision="FP32"/>
			</output>
		</layer>
		<layer id="185" name="287" type="Pad" version="opset1">
			<data pad_mode="edge"/>
			<rt_info>
				<attribute name="fused_names" version="0" value="287, Split_2069"/>
			</rt_info>
			<input>
				<port id="0" precision="FP32">
					<dim>1</dim>
					<dim>64</dim>
					<dim>720</dim>
					<dim>1280</dim>
				</port>
				<port id="1" precision="I64">
					<dim>4</dim>
				</port>
				<port id="2" precision="I64">
					<dim>4</dim>
				</port>
				<port id="3" precision="FP32"/>
			</input>
			<output>
				<port id="4" precision="FP32" names="287">
					<dim>1</dim>
					<dim>64</dim>
					<dim>722</dim>
					<dim>1282</dim>
				</port>
			</output>
		</layer>
		<layer id="186" name="decoder.layers.3.layers.0.layers.1.weight_compressed" type="Const" version="opset1">
			<data element_type="f16" shape="32, 64, 3, 3" offset="1518018" size="36864"/>
			<output>
				<port id="0" precision="FP16">
					<dim>32</dim>
					<dim>64</dim>
					<dim>3</dim>
					<dim>3</dim>
				</port>
			</output>
		</layer>
		<layer id="187" name="decoder.layers.3.layers.0.layers.1.weight" type="Convert" version="opset1">
			<data destination_type="f32"/>
			<rt_info>
				<attribute name="decompression" version="0"/>
				<attribute name="fused_names" version="0" value="decoder.layers.3.layers.0.layers.1.weight"/>
			</rt_info>
			<input>
				<port id="0" precision="FP16">
					<dim>32</dim>
					<dim>64</dim>
					<dim>3</dim>
					<dim>3</dim>
				</port>
			</input>
			<output>
				<port id="1" precision="FP32" names="decoder.layers.3.layers.0.layers.1.weight">
					<dim>32</dim>
					<dim>64</dim>
					<dim>3</dim>
					<dim>3</dim>
				</port>
			</output>
		</layer>
		<layer id="188" name="Convolution_2137" type="Convolution" version="opset1">
			<data strides="1, 1" dilations="1, 1" pads_begin="0, 0" pads_end="0, 0" auto_pad="explicit"/>
			<rt_info>
				<attribute name="fused_names" version="0" value="Convolution_2137"/>
			</rt_info>
			<input>
				<port id="0" precision="FP32">
					<dim>1</dim>
					<dim>64</dim>
					<dim>722</dim>
					<dim>1282</dim>
				</port>
				<port id="1" precision="FP32">
					<dim>32</dim>
					<dim>64</dim>
					<dim>3</dim>
					<dim>3</dim>
				</port>
			</input>
			<output>
				<port id="2" precision="FP32">
					<dim>1</dim>
					<dim>32</dim>
					<dim>720</dim>
					<dim>1280</dim>
				</port>
			</output>
		</layer>
		<layer id="189" name="Reshape_2157_compressed" type="Const" version="opset1">
			<data element_type="f16" shape="1, 32, 1, 1" offset="1554882" size="64"/>
			<output>
				<port id="0" precision="FP16">
					<dim>1</dim>
					<dim>32</dim>
					<dim>1</dim>
					<dim>1</dim>
				</port>
			</output>
		</layer>
		<layer id="190" name="Reshape_2157" type="Convert" version="opset1">
			<data destination_type="f32"/>
			<rt_info>
				<attribute name="decompression" version="0"/>
			</rt_info>
			<input>
				<port id="0" precision="FP16">
					<dim>1</dim>
					<dim>32</dim>
					<dim>1</dim>
					<dim>1</dim>
				</port>
			</input>
			<output>
				<port id="1" precision="FP32">
					<dim>1</dim>
					<dim>32</dim>
					<dim>1</dim>
					<dim>1</dim>
				</port>
			</output>
		</layer>
		<layer id="191" name="288" type="Add" version="opset1">
			<data auto_broadcast="numpy"/>
			<rt_info>
				<attribute name="fused_names" version="0" value="288, Concat_2156, Reshape_2157"/>
			</rt_info>
			<input>
				<port id="0" precision="FP32">
					<dim>1</dim>
					<dim>32</dim>
					<dim>720</dim>
					<dim>1280</dim>
				</port>
				<port id="1" precision="FP32">
					<dim>1</dim>
					<dim>32</dim>
					<dim>1</dim>
					<dim>1</dim>
				</port>
			</input>
			<output>
				<port id="2" precision="FP32" names="288">
					<dim>1</dim>
					<dim>32</dim>
					<dim>720</dim>
					<dim>1280</dim>
				</port>
			</output>
		</layer>
		<layer id="192" name="Constant_2185" type="Const" version="opset1">
			<data element_type="i64" shape="2" offset="1826" size="16"/>
			<rt_info>
				<attribute name="fused_names" version="0" value="Constant_2185"/>
			</rt_info>
			<output>
				<port id="0" precision="I64">
					<dim>2</dim>
				</port>
			</output>
		</layer>
		<layer id="193" name="MVN_2186" type="MVN" version="opset6">
			<data eps="9.9999997473787516e-06" normalize_variance="true" eps_mode="INSIDE_SQRT"/>
			<rt_info>
				<attribute name="fused_names" version="0" value="MVN_2186"/>
			</rt_info>
			<input>
				<port id="0" precision="FP32">
					<dim>1</dim>
					<dim>32</dim>
					<dim>720</dim>
					<dim>1280</dim>
				</port>
				<port id="1" precision="I64">
					<dim>2</dim>
				</port>
			</input>
			<output>
				<port id="2" precision="FP32">
					<dim>1</dim>
					<dim>32</dim>
					<dim>720</dim>
					<dim>1280</dim>
				</port>
			</output>
		</layer>
		<layer id="194" name="Reshape_2206_compressed" type="Const" version="opset1">
			<data element_type="f16" shape="1, 32, 1, 1" offset="1554946" size="64"/>
			<output>
				<port id="0" precision="FP16">
					<dim>1</dim>
					<dim>32</dim>
					<dim>1</dim>
					<dim>1</dim>
				</port>
			</output>
		</layer>
		<layer id="195" name="Reshape_2206" type="Convert" version="opset1">
			<data destination_type="f32"/>
			<rt_info>
				<attribute name="decompression" version="0"/>
			</rt_info>
			<input>
				<port id="0" precision="FP16">
					<dim>1</dim>
					<dim>32</dim>
					<dim>1</dim>
					<dim>1</dim>
				</port>
			</input>
			<output>
				<port id="1" precision="FP32">
					<dim>1</dim>
					<dim>32</dim>
					<dim>1</dim>
					<dim>1</dim>
				</port>
			</output>
		</layer>
		<layer id="196" name="Multiply_2233" type="Multiply" version="opset1">
			<data auto_broadcast="numpy"/>
			<rt_info>
				<attribute name="fused_names" version="0" value="Concat_2205, Multiply_2233, Reshape_2206"/>
			</rt_info>
			<input>
				<port id="0" precision="FP32">
					<dim>1</dim>
					<dim>32</dim>
					<dim>720</dim>
					<dim>1280</dim>
				</port>
				<port id="1" precision="FP32">
					<dim>1</dim>
					<dim>32</dim>
					<dim>1</dim>
					<dim>1</dim>
				</port>
			</input>
			<output>
				<port id="2" precision="FP32">
					<dim>1</dim>
					<dim>32</dim>
					<dim>720</dim>
					<dim>1280</dim>
				</port>
			</output>
		</layer>
		<layer id="197" name="Reshape_2251_compressed" type="Const" version="opset1">
			<data element_type="f16" shape="1, 32, 1, 1" offset="1555010" size="64"/>
			<output>
				<port id="0" precision="FP16">
					<dim>1</dim>
					<dim>32</dim>
					<dim>1</dim>
					<dim>1</dim>
				</port>
			</output>
		</layer>
		<layer id="198" name="Reshape_2251" type="Convert" version="opset1">
			<data destination_type="f32"/>
			<rt_info>
				<attribute name="decompression" version="0"/>
			</rt_info>
			<input>
				<port id="0" precision="FP16">
					<dim>1</dim>
					<dim>32</dim>
					<dim>1</dim>
					<dim>1</dim>
				</port>
			</input>
			<output>
				<port id="1" precision="FP32">
					<dim>1</dim>
					<dim>32</dim>
					<dim>1</dim>
					<dim>1</dim>
				</port>
			</output>
		</layer>
		<layer id="199" name="289" type="Add" version="opset1">
			<data auto_broadcast="numpy"/>
			<rt_info>
				<attribute name="fused_names" version="0" value="289, Concat_2250, Reshape_2251"/>
			</rt_info>
			<input>
				<port id="0" precision="FP32">
					<dim>1</dim>
					<dim>32</dim>
					<dim>720</dim>
					<dim>1280</dim>
				</port>
				<port id="1" precision="FP32">
					<dim>1</dim>
					<dim>32</dim>
					<dim>1</dim>
					<dim>1</dim>
				</port>
			</input>
			<output>
				<port id="2" precision="FP32" names="289">
					<dim>1</dim>
					<dim>32</dim>
					<dim>720</dim>
					<dim>1280</dim>
				</port>
			</output>
		</layer>
		<layer id="200" name="290" type="ReLU" version="opset1">
			<rt_info>
				<attribute name="fused_names" version="0" value="290"/>
			</rt_info>
			<input>
				<port id="0" precision="FP32">
					<dim>1</dim>
					<dim>32</dim>
					<dim>720</dim>
					<dim>1280</dim>
				</port>
			</input>
			<output>
				<port id="1" precision="FP32" names="290">
					<dim>1</dim>
					<dim>32</dim>
					<dim>720</dim>
					<dim>1280</dim>
				</port>
			</output>
		</layer>
		<layer id="201" name="Split_2313.0" type="Const" version="opset1">
			<data element_type="i64" shape="4" offset="0" size="32"/>
			<output>
				<port id="0" precision="I64">
					<dim>4</dim>
				</port>
			</output>
		</layer>
		<layer id="202" name="Split_2313.1" type="Const" version="opset1">
			<data element_type="i64" shape="4" offset="0" size="32"/>
			<output>
				<port id="0" precision="I64">
					<dim>4</dim>
				</port>
			</output>
		</layer>
		<layer id="203" name="Constant_2311_compressed" type="Const" version="opset1">
			<data element_type="f16" shape="" offset="32" size="2"/>
			<output>
				<port id="0" precision="FP16"/>
			</output>
		</layer>
		<layer id="204" name="Constant_2311" type="Convert" version="opset1">
			<data destination_type="f32"/>
			<rt_info>
				<attribute name="decompression" version="0"/>
				<attribute name="fused_names" version="0" value="Constant_2311"/>
			</rt_info>
			<input>
				<port id="0" precision="FP16"/>
			</input>
			<output>
				<port id="1" precision="FP32"/>
			</output>
		</layer>
		<layer id="205" name="313" type="Pad" version="opset1">
			<data pad_mode="edge"/>
			<rt_info>
				<attribute name="fused_names" version="0" value="313, Split_2313"/>
			</rt_info>
			<input>
				<port id="0" precision="FP32">
					<dim>1</dim>
					<dim>32</dim>
					<dim>720</dim>
					<dim>1280</dim>
				</port>
				<port id="1" precision="I64">
					<dim>4</dim>
				</port>
				<port id="2" precision="I64">
					<dim>4</dim>
				</port>
				<port id="3" precision="FP32"/>
			</input>
			<output>
				<port id="4" precision="FP32" names="313">
					<dim>1</dim>
					<dim>32</dim>
					<dim>722</dim>
					<dim>1282</dim>
				</port>
			</output>
		</layer>
		<layer id="206" name="decoder.layers.4.layers.0.layers.1.weight_compressed" type="Const" version="opset1">
			<data element_type="f16" shape="3, 32, 3, 3" offset="1555074" size="1728"/>
			<output>
				<port id="0" precision="FP16">
					<dim>3</dim>
					<dim>32</dim>
					<dim>3</dim>
					<dim>3</dim>
				</port>
			</output>
		</layer>
		<layer id="207" name="decoder.layers.4.layers.0.layers.1.weight" type="Convert" version="opset1">
			<data destination_type="f32"/>
			<rt_info>
				<attribute name="decompression" version="0"/>
				<attribute name="fused_names" version="0" value="decoder.layers.4.layers.0.layers.1.weight"/>
			</rt_info>
			<input>
				<port id="0" precision="FP16">
					<dim>3</dim>
					<dim>32</dim>
					<dim>3</dim>
					<dim>3</dim>
				</port>
			</input>
			<output>
				<port id="1" precision="FP32" names="decoder.layers.4.layers.0.layers.1.weight">
					<dim>3</dim>
					<dim>32</dim>
					<dim>3</dim>
					<dim>3</dim>
				</port>
			</output>
		</layer>
		<layer id="208" name="Convolution_2381" type="Convolution" version="opset1">
			<data strides="1, 1" dilations="1, 1" pads_begin="0, 0" pads_end="0, 0" auto_pad="explicit"/>
			<rt_info>
				<attribute name="fused_names" version="0" value="Convolution_2381"/>
			</rt_info>
			<input>
				<port id="0" precision="FP32">
					<dim>1</dim>
					<dim>32</dim>
					<dim>722</dim>
					<dim>1282</dim>
				</port>
				<port id="1" precision="FP32">
					<dim>3</dim>
					<dim>32</dim>
					<dim>3</dim>
					<dim>3</dim>
				</port>
			</input>
			<output>
				<port id="2" precision="FP32">
					<dim>1</dim>
					<dim>3</dim>
					<dim>720</dim>
					<dim>1280</dim>
				</port>
			</output>
		</layer>
		<layer id="209" name="Reshape_2401_compressed" type="Const" version="opset1">
			<data element_type="f16" shape="1, 3, 1, 1" offset="1556802" size="6"/>
			<output>
				<port id="0" precision="FP16">
					<dim>1</dim>
					<dim>3</dim>
					<dim>1</dim>
					<dim>1</dim>
				</port>
			</output>
		</layer>
		<layer id="210" name="Reshape_2401" type="Convert" version="opset1">
			<data destination_type="f32"/>
			<rt_info>
				<attribute name="decompression" version="0"/>
			</rt_info>
			<input>
				<port id="0" precision="FP16">
					<dim>1</dim>
					<dim>3</dim>
					<dim>1</dim>
					<dim>1</dim>
				</port>
			</input>
			<output>
				<port id="1" precision="FP32">
					<dim>1</dim>
					<dim>3</dim>
					<dim>1</dim>
					<dim>1</dim>
				</port>
			</output>
		</layer>
		<layer id="211" name="314" type="Add" version="opset1">
			<data auto_broadcast="numpy"/>
			<rt_info>
				<attribute name="fused_names" version="0" value="314, Concat_2400, Reshape_2401"/>
			</rt_info>
			<input>
				<port id="0" precision="FP32">
					<dim>1</dim>
					<dim>3</dim>
					<dim>720</dim>
					<dim>1280</dim>
				</port>
				<port id="1" precision="FP32">
					<dim>1</dim>
					<dim>3</dim>
					<dim>1</dim>
					<dim>1</dim>
				</port>
			</input>
			<output>
				<port id="2" precision="FP32" names="314">
					<dim>1</dim>
					<dim>3</dim>
					<dim>720</dim>
					<dim>1280</dim>
				</port>
			</output>
		</layer>
		<layer id="212" name="315" type="Tanh" version="opset1">
			<rt_info>
				<attribute name="fused_names" version="0" value="315"/>
			</rt_info>
			<input>
				<port id="0" precision="FP32">
					<dim>1</dim>
					<dim>3</dim>
					<dim>720</dim>
					<dim>1280</dim>
				</port>
			</input>
			<output>
				<port id="1" precision="FP32" names="315">
					<dim>1</dim>
					<dim>3</dim>
					<dim>720</dim>
					<dim>1280</dim>
				</port>
			</output>
		</layer>
		<layer id="213" name="Constant_5219_compressed" type="Const" version="opset1">
			<data element_type="f16" shape="1, 1, 1, 1" offset="1556808" size="2"/>
			<output>
				<port id="0" precision="FP16">
					<dim>1</dim>
					<dim>1</dim>
					<dim>1</dim>
					<dim>1</dim>
				</port>
			</output>
		</layer>
		<layer id="214" name="Constant_5219" type="Convert" version="opset1">
			<data destination_type="f32"/>
			<rt_info>
				<attribute name="decompression" version="0"/>
			</rt_info>
			<input>
				<port id="0" precision="FP16">
					<dim>1</dim>
					<dim>1</dim>
					<dim>1</dim>
					<dim>1</dim>
				</port>
			</input>
			<output>
				<port id="1" precision="FP32">
					<dim>1</dim>
					<dim>1</dim>
					<dim>1</dim>
					<dim>1</dim>
				</port>
			</output>
		</layer>
		<layer id="215" name="Multiply_5169" type="Multiply" version="opset1">
			<data auto_broadcast="numpy"/>
			<rt_info>
				<attribute name="fused_names" version="0" value="317, 320, 322, 381"/>
			</rt_info>
			<input>
				<port id="0" precision="FP32">
					<dim>1</dim>
					<dim>3</dim>
					<dim>720</dim>
					<dim>1280</dim>
				</port>
				<port id="1" precision="FP32">
					<dim>1</dim>
					<dim>1</dim>
					<dim>1</dim>
					<dim>1</dim>
				</port>
			</input>
			<output>
				<port id="2" precision="FP32">
					<dim>1</dim>
					<dim>3</dim>
					<dim>720</dim>
					<dim>1280</dim>
				</port>
			</output>
		</layer>
		<layer id="216" name="Constant_5220_compressed" type="Const" version="opset1">
			<data element_type="f16" shape="1, 1, 1, 1" offset="1556808" size="2"/>
			<output>
				<port id="0" precision="FP16">
					<dim>1</dim>
					<dim>1</dim>
					<dim>1</dim>
					<dim>1</dim>
				</port>
			</output>
		</layer>
		<layer id="217" name="Constant_5220" type="Convert" version="opset1">
			<data destination_type="f32"/>
			<rt_info>
				<attribute name="decompression" version="0"/>
			</rt_info>
			<input>
				<port id="0" precision="FP16">
					<dim>1</dim>
					<dim>1</dim>
					<dim>1</dim>
					<dim>1</dim>
				</port>
			</input>
			<output>
				<port id="1" precision="FP32">
					<dim>1</dim>
					<dim>1</dim>
					<dim>1</dim>
					<dim>1</dim>
				</port>
			</output>
		</layer>
		<layer id="218" name="322" type="Add" version="opset1">
			<data auto_broadcast="numpy"/>
			<rt_info>
				<attribute name="fused_names" version="0" value="317, 320, 322, 381"/>
			</rt_info>
			<input>
				<port id="0" precision="FP32">
					<dim>1</dim>
					<dim>3</dim>
					<dim>720</dim>
					<dim>1280</dim>
				</port>
				<port id="1" precision="FP32">
					<dim>1</dim>
					<dim>1</dim>
					<dim>1</dim>
					<dim>1</dim>
				</port>
			</input>
			<output>
				<port id="2" precision="FP32" names="322">
					<dim>1</dim>
					<dim>3</dim>
					<dim>720</dim>
					<dim>1280</dim>
				</port>
			</output>
		</layer>
		<layer id="219" name="327" type="Clamp" version="opset1">
			<data min="0" max="255"/>
			<rt_info>
				<attribute name="fused_names" version="0" value="327, Maximum_2435"/>
			</rt_info>
			<input>
				<port id="0" precision="FP32">
					<dim>1</dim>
					<dim>3</dim>
					<dim>720</dim>
					<dim>1280</dim>
				</port>
			</input>
			<output>
				<port id="1" precision="FP32" names="327">
					<dim>1</dim>
					<dim>3</dim>
					<dim>720</dim>
					<dim>1280</dim>
				</port>
			</output>
		</layer>
		<layer id="220" name="outputImage" type="Convert" version="opset1">
			<data destination_type="u8"/>
			<rt_info>
				<attribute name="fused_names" version="0" value="outputImage"/>
			</rt_info>
			<input>
				<port id="0" precision="FP32">
					<dim>1</dim>
					<dim>3</dim>
					<dim>720</dim>
					<dim>1280</dim>
				</port>
			</input>
			<output>
				<port id="1" precision="U8" names="outputImage">
					<dim>1</dim>
					<dim>3</dim>
					<dim>720</dim>
					<dim>1280</dim>
				</port>
			</output>
		</layer>
		<layer id="221" name="outputImage/sink_port_0" type="Result" version="opset1">
			<rt_info>
				<attribute name="fused_names" version="0" value="outputImage/sink_port_0"/>
			</rt_info>
			<input>
				<port id="0" precision="U8">
					<dim>1</dim>
					<dim>3</dim>
					<dim>720</dim>
					<dim>1280</dim>
				</port>
			</input>
		</layer>
	</layers>
	<edges>
		<edge from-layer="0" from-port="0" to-layer="5" to-port="0"/>
		<edge from-layer="1" from-port="0" to-layer="5" to-port="1"/>
		<edge from-layer="2" from-port="0" to-layer="5" to-port="2"/>
		<edge from-layer="3" from-port="0" to-layer="4" to-port="0"/>
		<edge from-layer="4" from-port="1" to-layer="5" to-port="3"/>
		<edge from-layer="5" from-port="4" to-layer="8" to-port="0"/>
		<edge from-layer="6" from-port="0" to-layer="7" to-port="0"/>
		<edge from-layer="7" from-port="1" to-layer="8" to-port="1"/>
		<edge from-layer="8" from-port="2" to-layer="11" to-port="0"/>
		<edge from-layer="9" from-port="0" to-layer="10" to-port="0"/>
		<edge from-layer="10" from-port="1" to-layer="11" to-port="1"/>
		<edge from-layer="11" from-port="2" to-layer="13" to-port="0"/>
		<edge from-layer="12" from-port="0" to-layer="13" to-port="1"/>
		<edge from-layer="13" from-port="2" to-layer="16" to-port="0"/>
		<edge from-layer="14" from-port="0" to-layer="15" to-port="0"/>
		<edge from-layer="15" from-port="1" to-layer="16" to-port="1"/>
		<edge from-layer="16" from-port="2" to-layer="19" to-port="0"/>
		<edge from-layer="17" from-port="0" to-layer="18" to-port="0"/>
		<edge from-layer="18" from-port="1" to-layer="19" to-port="1"/>
		<edge from-layer="19" from-port="2" to-layer="20" to-port="0"/>
		<edge from-layer="20" from-port="1" to-layer="25" to-port="0"/>
		<edge from-layer="21" from-port="0" to-layer="25" to-port="1"/>
		<edge from-layer="22" from-port="0" to-layer="25" to-port="2"/>
		<edge from-layer="23" from-port="0" to-layer="24" to-port="0"/>
		<edge from-layer="24" from-port="1" to-layer="25" to-port="3"/>
		<edge from-layer="25" from-port="4" to-layer="28" to-port="0"/>
		<edge from-layer="26" from-port="0" to-layer="27" to-port="0"/>
		<edge from-layer="27" from-port="1" to-layer="28" to-port="1"/>
		<edge from-layer="28" from-port="2" to-layer="31" to-port="0"/>
		<edge from-layer="29" from-port="0" to-layer="30" to-port="0"/>
		<edge from-layer="30" from-port="1" to-layer="31" to-port="1"/>
		<edge from-layer="31" from-port="2" to-layer="33" to-port="0"/>
		<edge from-layer="32" from-port="0" to-layer="33" to-port="1"/>
		<edge from-layer="33" from-port="2" to-layer="36" to-port="0"/>
		<edge from-layer="34" from-port="0" to-layer="35" to-port="0"/>
		<edge from-layer="35" from-port="1" to-layer="36" to-port="1"/>
		<edge from-layer="36" from-port="2" to-layer="39" to-port="0"/>
		<edge from-layer="37" from-port="0" to-layer="38" to-port="0"/>
		<edge from-layer="38" from-port="1" to-layer="39" to-port="1"/>
		<edge from-layer="39" from-port="2" to-layer="40" to-port="0"/>
		<edge from-layer="40" from-port="1" to-layer="45" to-port="0"/>
		<edge from-layer="41" from-port="0" to-layer="45" to-port="1"/>
		<edge from-layer="42" from-port="0" to-layer="45" to-port="2"/>
		<edge from-layer="43" from-port="0" to-layer="44" to-port="0"/>
		<edge from-layer="44" from-port="1" to-layer="45" to-port="3"/>
		<edge from-layer="45" from-port="4" to-layer="48" to-port="0"/>
		<edge from-layer="46" from-port="0" to-layer="47" to-port="0"/>
		<edge from-layer="47" from-port="1" to-layer="48" to-port="1"/>
		<edge from-layer="48" from-port="2" to-layer="51" to-port="0"/>
		<edge from-layer="49" from-port="0" to-layer="50" to-port="0"/>
		<edge from-layer="50" from-port="1" to-layer="51" to-port="1"/>
		<edge from-layer="51" from-port="2" to-layer="53" to-port="0"/>
		<edge from-layer="52" from-port="0" to-layer="53" to-port="1"/>
		<edge from-layer="53" from-port="2" to-layer="56" to-port="0"/>
		<edge from-layer="54" from-port="0" to-layer="55" to-port="0"/>
		<edge from-layer="55" from-port="1" to-layer="56" to-port="1"/>
		<edge from-layer="56" from-port="2" to-layer="59" to-port="0"/>
		<edge from-layer="57" from-port="0" to-layer="58" to-port="0"/>
		<edge from-layer="58" from-port="1" to-layer="59" to-port="1"/>
		<edge from-layer="59" from-port="2" to-layer="60" to-port="0"/>
		<edge from-layer="60" from-port="1" to-layer="65" to-port="0"/>
		<edge from-layer="60" from-port="1" to-layer="81" to-port="0"/>
		<edge from-layer="61" from-port="0" to-layer="65" to-port="1"/>
		<edge from-layer="62" from-port="0" to-layer="65" to-port="2"/>
		<edge from-layer="63" from-port="0" to-layer="64" to-port="0"/>
		<edge from-layer="64" from-port="1" to-layer="65" to-port="3"/>
		<edge from-layer="65" from-port="4" to-layer="68" to-port="0"/>
		<edge from-layer="66" from-port="0" to-layer="67" to-port="0"/>
		<edge from-layer="67" from-port="1" to-layer="68" to-port="1"/>
		<edge from-layer="68" from-port="2" to-layer="71" to-port="0"/>
		<edge from-layer="69" from-port="0" to-layer="70" to-port="0"/>
		<edge from-layer="70" from-port="1" to-layer="71" to-port="1"/>
		<edge from-layer="71" from-port="2" to-layer="73" to-port="0"/>
		<edge from-layer="72" from-port="0" to-layer="73" to-port="1"/>
		<edge from-layer="73" from-port="2" to-layer="76" to-port="0"/>
		<edge from-layer="74" from-port="0" to-layer="75" to-port="0"/>
		<edge from-layer="75" from-port="1" to-layer="76" to-port="1"/>
		<edge from-layer="76" from-port="2" to-layer="79" to-port="0"/>
		<edge from-layer="77" from-port="0" to-layer="78" to-port="0"/>
		<edge from-layer="78" from-port="1" to-layer="79" to-port="1"/>
		<edge from-layer="79" from-port="2" to-layer="80" to-port="0"/>
		<edge from-layer="80" from-port="1" to-layer="81" to-port="1"/>
		<edge from-layer="81" from-port="2" to-layer="82" to-port="0"/>
		<edge from-layer="82" from-port="1" to-layer="87" to-port="0"/>
		<edge from-layer="82" from-port="1" to-layer="103" to-port="0"/>
		<edge from-layer="83" from-port="0" to-layer="87" to-port="1"/>
		<edge from-layer="84" from-port="0" to-layer="87" to-port="2"/>
		<edge from-layer="85" from-port="0" to-layer="86" to-port="0"/>
		<edge from-layer="86" from-port="1" to-layer="87" to-port="3"/>
		<edge from-layer="87" from-port="4" to-layer="90" to-port="0"/>
		<edge from-layer="88" from-port="0" to-layer="89" to-port="0"/>
		<edge from-layer="89" from-port="1" to-layer="90" to-port="1"/>
		<edge from-layer="90" from-port="2" to-layer="93" to-port="0"/>
		<edge from-layer="91" from-port="0" to-layer="92" to-port="0"/>
		<edge from-layer="92" from-port="1" to-layer="93" to-port="1"/>
		<edge from-layer="93" from-port="2" to-layer="95" to-port="0"/>
		<edge from-layer="94" from-port="0" to-layer="95" to-port="1"/>
		<edge from-layer="95" from-port="2" to-layer="98" to-port="0"/>
		<edge from-layer="96" from-port="0" to-layer="97" to-port="0"/>
		<edge from-layer="97" from-port="1" to-layer="98" to-port="1"/>
		<edge from-layer="98" from-port="2" to-layer="101" to-port="0"/>
		<edge from-layer="99" from-port="0" to-layer="100" to-port="0"/>
		<edge from-layer="100" from-port="1" to-layer="101" to-port="1"/>
		<edge from-layer="101" from-port="2" to-layer="102" to-port="0"/>
		<edge from-layer="102" from-port="1" to-layer="103" to-port="1"/>
		<edge from-layer="103" from-port="2" to-layer="104" to-port="0"/>
		<edge from-layer="104" from-port="1" to-layer="109" to-port="0"/>
		<edge from-layer="104" from-port="1" to-layer="125" to-port="0"/>
		<edge from-layer="105" from-port="0" to-layer="109" to-port="1"/>
		<edge from-layer="106" from-port="0" to-layer="109" to-port="2"/>
		<edge from-layer="107" from-port="0" to-layer="108" to-port="0"/>
		<edge from-layer="108" from-port="1" to-layer="109" to-port="3"/>
		<edge from-layer="109" from-port="4" to-layer="112" to-port="0"/>
		<edge from-layer="110" from-port="0" to-layer="111" to-port="0"/>
		<edge from-layer="111" from-port="1" to-layer="112" to-port="1"/>
		<edge from-layer="112" from-port="2" to-layer="115" to-port="0"/>
		<edge from-layer="113" from-port="0" to-layer="114" to-port="0"/>
		<edge from-layer="114" from-port="1" to-layer="115" to-port="1"/>
		<edge from-layer="115" from-port="2" to-layer="117" to-port="0"/>
		<edge from-layer="116" from-port="0" to-layer="117" to-port="1"/>
		<edge from-layer="117" from-port="2" to-layer="120" to-port="0"/>
		<edge from-layer="118" from-port="0" to-layer="119" to-port="0"/>
		<edge from-layer="119" from-port="1" to-layer="120" to-port="1"/>
		<edge from-layer="120" from-port="2" to-layer="123" to-port="0"/>
		<edge from-layer="121" from-port="0" to-layer="122" to-port="0"/>
		<edge from-layer="122" from-port="1" to-layer="123" to-port="1"/>
		<edge from-layer="123" from-port="2" to-layer="124" to-port="0"/>
		<edge from-layer="124" from-port="1" to-layer="125" to-port="1"/>
		<edge from-layer="125" from-port="2" to-layer="126" to-port="0"/>
		<edge from-layer="126" from-port="1" to-layer="131" to-port="0"/>
		<edge from-layer="126" from-port="1" to-layer="147" to-port="0"/>
		<edge from-layer="127" from-port="0" to-layer="131" to-port="1"/>
		<edge from-layer="128" from-port="0" to-layer="131" to-port="2"/>
		<edge from-layer="129" from-port="0" to-layer="130" to-port="0"/>
		<edge from-layer="130" from-port="1" to-layer="131" to-port="3"/>
		<edge from-layer="131" from-port="4" to-layer="134" to-port="0"/>
		<edge from-layer="132" from-port="0" to-layer="133" to-port="0"/>
		<edge from-layer="133" from-port="1" to-layer="134" to-port="1"/>
		<edge from-layer="134" from-port="2" to-layer="137" to-port="0"/>
		<edge from-layer="135" from-port="0" to-layer="136" to-port="0"/>
		<edge from-layer="136" from-port="1" to-layer="137" to-port="1"/>
		<edge from-layer="137" from-port="2" to-layer="139" to-port="0"/>
		<edge from-layer="138" from-port="0" to-layer="139" to-port="1"/>
		<edge from-layer="139" from-port="2" to-layer="142" to-port="0"/>
		<edge from-layer="140" from-port="0" to-layer="141" to-port="0"/>
		<edge from-layer="141" from-port="1" to-layer="142" to-port="1"/>
		<edge from-layer="142" from-port="2" to-layer="145" to-port="0"/>
		<edge from-layer="143" from-port="0" to-layer="144" to-port="0"/>
		<edge from-layer="144" from-port="1" to-layer="145" to-port="1"/>
		<edge from-layer="145" from-port="2" to-layer="146" to-port="0"/>
		<edge from-layer="146" from-port="1" to-layer="147" to-port="1"/>
		<edge from-layer="147" from-port="2" to-layer="148" to-port="0"/>
		<edge from-layer="148" from-port="1" to-layer="149" to-port="0"/>
		<edge from-layer="148" from-port="1" to-layer="154" to-port="0"/>
		<edge from-layer="149" from-port="1" to-layer="150" to-port="0"/>
		<edge from-layer="150" from-port="1" to-layer="152" to-port="0"/>
		<edge from-layer="151" from-port="0" to-layer="152" to-port="1"/>
		<edge from-layer="151" from-port="0" to-layer="154" to-port="2"/>
		<edge from-layer="152" from-port="2" to-layer="153" to-port="0"/>
		<edge from-layer="153" from-port="1" to-layer="154" to-port="1"/>
		<edge from-layer="154" from-port="3" to-layer="159" to-port="0"/>
		<edge from-layer="155" from-port="0" to-layer="159" to-port="1"/>
		<edge from-layer="156" from-port="0" to-layer="159" to-port="2"/>
		<edge from-layer="157" from-port="0" to-layer="158" to-port="0"/>
		<edge from-layer="158" from-port="1" to-layer="159" to-port="3"/>
		<edge from-layer="159" from-port="4" to-layer="162" to-port="0"/>
		<edge from-layer="160" from-port="0" to-layer="161" to-port="0"/>
		<edge from-layer="161" from-port="1" to-layer="162" to-port="1"/>
		<edge from-layer="162" from-port="2" to-layer="165" to-port="0"/>
		<edge from-layer="163" from-port="0" to-layer="164" to-port="0"/>
		<edge from-layer="164" from-port="1" to-layer="165" to-port="1"/>
		<edge from-layer="165" from-port="2" to-layer="167" to-port="0"/>
		<edge from-layer="166" from-port="0" to-layer="167" to-port="1"/>
		<edge from-layer="167" from-port="2" to-layer="170" to-port="0"/>
		<edge from-layer="168" from-port="0" to-layer="169" to-port="0"/>
		<edge from-layer="169" from-port="1" to-layer="170" to-port="1"/>
		<edge from-layer="170" from-port="2" to-layer="173" to-port="0"/>
		<edge from-layer="171" from-port="0" to-layer="172" to-port="0"/>
		<edge from-layer="172" from-port="1" to-layer="173" to-port="1"/>
		<edge from-layer="173" from-port="2" to-layer="174" to-port="0"/>
		<edge from-layer="174" from-port="1" to-layer="175" to-port="0"/>
		<edge from-layer="174" from-port="1" to-layer="180" to-port="0"/>
		<edge from-layer="175" from-port="1" to-layer="176" to-port="0"/>
		<edge from-layer="176" from-port="1" to-layer="178" to-port="0"/>
		<edge from-layer="177" from-port="0" to-layer="178" to-port="1"/>
		<edge from-layer="177" from-port="0" to-layer="180" to-port="2"/>
		<edge from-layer="178" from-port="2" to-layer="179" to-port="0"/>
		<edge from-layer="179" from-port="1" to-layer="180" to-port="1"/>
		<edge from-layer="180" from-port="3" to-layer="185" to-port="0"/>
		<edge from-layer="181" from-port="0" to-layer="185" to-port="1"/>
		<edge from-layer="182" from-port="0" to-layer="185" to-port="2"/>
		<edge from-layer="183" from-port="0" to-layer="184" to-port="0"/>
		<edge from-layer="184" from-port="1" to-layer="185" to-port="3"/>
		<edge from-layer="185" from-port="4" to-layer="188" to-port="0"/>
		<edge from-layer="186" from-port="0" to-layer="187" to-port="0"/>
		<edge from-layer="187" from-port="1" to-layer="188" to-port="1"/>
		<edge from-layer="188" from-port="2" to-layer="191" to-port="0"/>
		<edge from-layer="189" from-port="0" to-layer="190" to-port="0"/>
		<edge from-layer="190" from-port="1" to-layer="191" to-port="1"/>
		<edge from-layer="191" from-port="2" to-layer="193" to-port="0"/>
		<edge from-layer="192" from-port="0" to-layer="193" to-port="1"/>
		<edge from-layer="193" from-port="2" to-layer="196" to-port="0"/>
		<edge from-layer="194" from-port="0" to-layer="195" to-port="0"/>
		<edge from-layer="195" from-port="1" to-layer="196" to-port="1"/>
		<edge from-layer="196" from-port="2" to-layer="199" to-port="0"/>
		<edge from-layer="197" from-port="0" to-layer="198" to-port="0"/>
		<edge from-layer="198" from-port="1" to-layer="199" to-port="1"/>
		<edge from-layer="199" from-port="2" to-layer="200" to-port="0"/>
		<edge from-layer="200" from-port="1" to-layer="205" to-port="0"/>
		<edge from-layer="201" from-port="0" to-layer="205" to-port="1"/>
		<edge from-layer="202" from-port="0" to-layer="205" to-port="2"/>
		<edge from-layer="203" from-port="0" to-layer="204" to-port="0"/>
		<edge from-layer="204" from-port="1" to-layer="205" to-port="3"/>
		<edge from-layer="205" from-port="4" to-layer="208" to-port="0"/>
		<edge from-layer="206" from-port="0" to-layer="207" to-port="0"/>
		<edge from-layer="207" from-port="1" to-layer="208" to-port="1"/>
		<edge from-layer="208" from-port="2" to-layer="211" to-port="0"/>
		<edge from-layer="209" from-port="0" to-layer="210" to-port="0"/>
		<edge from-layer="210" from-port="1" to-layer="211" to-port="1"/>
		<edge from-layer="211" from-port="2" to-layer="212" to-port="0"/>
		<edge from-layer="212" from-port="1" to-layer="215" to-port="0"/>
		<edge from-layer="213" from-port="0" to-layer="214" to-port="0"/>
		<edge from-layer="214" from-port="1" to-layer="215" to-port="1"/>
		<edge from-layer="215" from-port="2" to-layer="218" to-port="0"/>
		<edge from-layer="216" from-port="0" to-layer="217" to-port="0"/>
		<edge from-layer="217" from-port="1" to-layer="218" to-port="1"/>
		<edge from-layer="218" from-port="2" to-layer="219" to-port="0"/>
		<edge from-layer="219" from-port="1" to-layer="220" to-port="0"/>
		<edge from-layer="220" from-port="1" to-layer="221" to-port="0"/>
	</edges>
	<meta_data>
		<MO_version value="2022.1.0-6682-121d59aa80a"/>
		<Runtime_version value="2022.1.0-6682-121d59aa80a"/>
		<legacy_path value="False"/>
		<cli_parameters>
			<caffe_parser_path value="DIR"/>
			<compress_fp16 value="True"/>
			<data_type value="FP32"/>
			<disable_nhwc_to_nchw value="False"/>
			<disable_omitting_optional value="False"/>
			<disable_resnet_optimization value="False"/>
			<disable_weights_compression value="False"/>
			<enable_concat_optimization value="False"/>
			<enable_flattening_nested_params value="False"/>
			<enable_ssd_gluoncv value="False"/>
			<extensions value="DIR"/>
			<framework value="onnx"/>
			<freeze_placeholder_with_value value="{}"/>
			<generate_deprecated_IR_V7 value="False"/>
			<input_model value="DIR\model.onnx"/>
			<input_model_is_text value="False"/>
			<k value="DIR\CustomLayersMapping.xml"/>
			<keep_shape_ops value="True"/>
			<layout value="()"/>
			<layout_values value="{}"/>
			<legacy_ir_generation value="False"/>
			<legacy_mxnet_model value="False"/>
			<log_level value="ERROR"/>
			<mean_scale_values value="{}"/>
			<mean_values value="()"/>
			<model_name value="model"/>
			<output_dir value="DIR"/>
			<placeholder_data_types value="{}"/>
			<progress value="False"/>
			<remove_memory value="False"/>
			<remove_output_softmax value="False"/>
			<reverse_input_channels value="True"/>
			<save_params_from_nd value="False"/>
			<scale_values value="()"/>
			<silent value="False"/>
			<source_layout value="()"/>
			<static_shape value="False"/>
			<stream_output value="False"/>
			<target_layout value="()"/>
			<transform value=""/>
			<use_legacy_frontend value="False"/>
			<use_new_frontend value="False"/>
			<unset unset_cli_parameters="batch, counts, disable_fusing, disable_gfusing, finegrain_fusing, input, input_checkpoint, input_meta_graph, input_proto, input_shape, input_symbol, mean_file, mean_file_offsets, move_to_preprocess, nd_prefix_name, output, placeholder_shapes, pretrained_model_name, saved_model_dir, saved_model_tags, scale, tensorboard_logdir, tensorflow_custom_layer_libraries, tensorflow_custom_operations_config_update, tensorflow_object_detection_api_pipeline_config, tensorflow_use_custom_operations_config, transformations_config"/>
		</cli_parameters>
	</meta_data>
</net>
